neural_th/thermal_mass_model.pth (torch, 88672 bytes, 10 tensors)

lstm.weight_ih_l0 f4 [256, 6]
-3.0205505e-05 0.0011369404 0.004695532 -0.0037839424 0.0009991322 0.004273249 0.00058398925 0.014674176
9.3158415e-05 -0.0005206035 -6.729325e-05 -0.008784877 0.00037289623 -0.003566901 6.192033e-05 5.9291942e-05
-0.00082242617 -0.01742037 2.1883365e-05 -0.0015621415 0.00017515401 -0.0047853477 -0.00019348071 8.020174e-06
9.366127e-06 -2.1338396e-05 -0.005941806 1.12299595e-05 0.0081339 0.013438811 -0.00090852607 -0.016229944
0.0051373923 1.2697394e-05 -0.0003350582 0.0008790152 -2.4549629e-05 0.0005754353 -5.1016174e-05 -6.831608e-05
6.1512824e-06 -0.007348197 -0.0003128776 0.01221201 -9.2650197e-07 -0.00036435682 0.00140151 0.015574558
-0.008185424 -0.00768382 0.011916974 -0.00055739394 -0.0061426936 -0.015571908 9.355575e-05 0.008062465
0.004399764 -0.015945109 0.015178647 0.0025589087 0.012236963 -1.1767813e-05 -0.00040420663 0.00047657674
3.2696236e-05 -2.7903094e-05 -0.0007205992 -0.0033271862 -0.0006266693 -2.6254911e-05 0.018311007 -0.028435053
0.014949974 0.01751802 -0.0005586827 -0.0005596831 -0.0059131 0.00883696 0.0019159651 -0.0047882968
0.0027538112 0.014612028 7.4625365e-05 -0.00023765289 0.011899877 0.0010905027 0.0024362013 -0.006283499
0.0018004829 0.00652416 -3.7600853e-06 0.0004094054 1.6623363e-06 1.6978205e-05 1.5338162e-05 0.0005495276
-3.475121e-05 0.00095506577 0.0048018307 2.868552e-06 7.772943e-05 -0.005864047 0.0071891067 -0.001618674
8.763913e-05 -5.5033775e-07 1.6589196e-05 -0.00048360034 0.0003733111 0.0010142382 0.0025333683 -0.00026034733
0.0013087987 0.006882801 -1.3441909e-06 -0.00036219973 0.00043614252 -0.0005563795 -4.0632298e-05 0.0013170535
-8.008967e-06 0.014883433 -0.00016753751 -0.017804531 1.2132816e-05 -0.011197675 0.010017001 0.00033858189
0.0038843364 1.817531e-05 0.00012155857 -0.01267196 -0.0073796827 -0.0009488241 -0.0072641554 6.868571e-05
0.01719231 -0.00027297728 -0.0133266775 0.00041470522 -0.0006649719 5.1293802e-05 0.00017370065 0.00051803415
0.0072895796 -6.963321e-05 -0.00040685423 -3.284436e-05 -0.0003327193 2.4669187e-05 -8.817396e-05 -0.00010354794
-0.004509315 5.2134594e-05 -1.4559614e-05 -3.1915342e-06 0.016640706 1.6026164e-05 2.451013e-05 -0.0041934676
-0.0005375746 0.0006940512 0.0066737677 -0.00011192087 0.0071290242 7.943319e-05 -5.45778e-05 -0.0024606064
-0.00039659246 -0.0027594909 0.007368785 0.008191427 0.0002969326 -1.7632305e-05 -0.00058560114 0.01483644
-0.0099837845 -0.0005808485 -0.016420757 -0.0002423431 0.0060721473 0.0017395711 -0.0029093977 -0.01726216
0.00014649543 -2.0079617e-06 -2.0437361e-05 0.010455565 3.3980294e-05 0.0033769836 -0.0052102352 0.009109277
5.3596035e-05 0.010459846 0.0025883068 -0.004675875 -0.00026467853 -0.00053240947 0.009226554 -0.00038706957
0.004185072 0.0014306236 0.007368976 0.0038281537 -0.0005131924 -0.010271025 0.0009391585 0.002124596
-9.853396e-05 0.013254715 9.711605e-05 0.000117116455 0.0023247818 3.3959674e-05 -0.016546506 0.00011106638
-0.004713251 0.0005334761 -2.8152304e-05 -9.432469e-05 -0.017244114 -0.009015299 0.014163509 -6.96454e-05
0.0005379849 -0.00427505 -0.008332796 0.0010371015 1.2887068e-05 -0.00022965402 0.004976864 -0.0005688008
-7.998639e-05 -2.2548853e-05 -0.0004887066 0.0031676975 0.004660709 -0.00034883106 0.00068122 0.002643406
0.008205684 -0.0005599799 0.008191121 0.0006614016 -4.206912e-06 4.2352636e-05 2.5482042e-05 -1.0630234e-05
3.373742e-06 9.30466e-06 -0.00045829 -0.00058563764 -0.006712501 -0.002027732 -0.041977677 0.0010769673
00000000: d461 fdb7 6405 953a fadc 993b 05fc 77bb
00000010: 50f5 823a 9c06 8c3b db16 193a f56b 703c
00000020: 0b5e c338 1c79 08ba ca1f 8db8 72ee 0fbc
00000030: 4981 c339 abc2 69bb 39db 8138 3db0 7838
00000040: 1698 57ba 2ab5 8ebc 2b92 b737 c5c0 ccba
00000050: 8ca9 3739 68ce 9cbb 15e1 4ab9 638e 0637
00000060: 3623 1d37 dbff b2b7 7bb3 c2bb 4f68 3c37
00000070: 0d44 053c 752e 5c3c 272a 6eba a9f4 84bc
00000080: 9257 a83b e406 5537 c0aa afb9 b66d 663a
00000090: edef cdb7 cfd8 163a 33fa 55b8 eb44 8fb8
000000a0: 1d67 ce36 25c9 f0bb b809 a4b9 e214 483c
000000b0: bbb4 78b5 2507 bfb9 dfb2 b73a 6e2c 7f3c
000000c0: 281c 06bc 8ec8 fbbb 693f 433c 131e 12ba
000000d0: a648 c9bb 5121 7fbc 5c33 c438 6e18 043c
000000e0: e52b 903b 519f 82bc dcaf 783c 5db3 273b
000000f0: 8b7d 483c 5f6e 45b7 b2eb d3b9 0cdd f939
00000100: 5123 0938 7011 eab7 98e6 3cba ec0c 5abb
00000110: 1147 24ba fe3d dcb7 f700 963c a1f0 e8bc
00000120: bcf0 743c f381 8f3c 9074 12ba b2b7 12ba
00000130: aec2 c1bb e6c8 103c 1f21 fb3a 25e7 9cbb
00000140: 4979 343b 4a67 6f3c 3080 9c38 7632 79b9
00000150: b4f7 423c 33ef 8e3a ada8 1f3b cfe5 cdbb
00000160: 2efe eb3a 9fc8 d53b c655 7cb6 76a5 d639
00000170: 711d df35 6b6c 8e37 74aa 8037 2c0e 103a
00000180: d4c1 11b8 615d 7a3a ad58 9d3b 5981 4036
00000190: ac02 a338 3127 c0bb 9992 eb3b b029 d4ba
000001a0: e6ca b738 ecba 13b5 0729 8b37 bd8b fdb9
000001b0: f8b8 c339 30f0 843a de06 263b 3a7f 88b9
000001c0: ff8b ab3a 1f89 e13b 0c6a b4b5 a0e5 bdb9
000001d0: 0faa e439 ffd9 11ba 996c 2ab8 fba0 ac3a
000001e0: 405e 06b7 a4d9 733c 02ad 2fb9 cfda 91bc
000001f0: 0c8e 4b37 7476 37bc 591e 243c b183 b139
00000200: 5a90 7e3b 2e77 9837 43ed fe38 0d9e 4fbc
00000210: 44d1 f1bb 82ba 78ba 2708 eebb 5c0b 9038
00000220: e3d6 8c3c 641e 8fb9 2358 5abc cb6c d939
00000230: 8251 2eba 4d24 5738 6a23 3639 afcc 073a
00000240: 6ddd ee3b 0c08 92b8 0d4f d5b9 5dc2 09b8
00000250: d470 aeb9 adf0 ce37 09ea b8b8 e127 d9b8
00000260: e0c2 93bb 18ab 5a38 1145 74b7 242e 56b6
00000270: 1752 883c ed6f 8637 1a9b cd37 5b69 89bb
00000280: 05ec 0cba fdf0 353a 9faf da3b 0fb7 eab8
00000290: 979a e93b 5f95 a638 77ea 64b8 2042 21bb
000002a0: bded cfb9 93d8 34bb d975 f13b 5635 063c
000002b0: 9ead 9b39 16e9 93b7 0783 19ba 8a14 733c
000002c0: 0793 23bc 1544 18ba d384 86bc 7b1d 7eb9
000002d0: ddf8 c63b 5202 e43a 98ab 3ebb 6069 8dbc
000002e0: 919c 1939 85c0 06b6 e670 abb7 d14d 2b3c
000002f0: 1086 0e38 6250 5d3b 9fba aabb 143f 153c
00000300: 4ecc 6038 c65f 2b3c 95a0 293b 1538 99bb
00000310: 8dc4 8ab9 6591 0bba f92a 173c 99ef cab9
00000320: ee22 893b c383 bb3a 7377 f13b c3e1 7a3b
00000330: c287 06ba cd47 28bc dc31 763a ce3c 0b3b
00000340: 04a4 ceb8 4e2a 593c c8aa cb38 6b9c f538
00000350: 5e5b 183b ec6f 0e38 8a8c 87bc 4fec e838
00000360: 9d71 9abb fad8 0b3a 9d28 ecb7 2fd0 c5b8
00000370: 8743 8dbc e8b4 13bc 100e 683c 970e 92b8
00000380: 8e07 0d3a b815 8cbb 4886 08bc 5aef 873a
00000390: 8935 5837 48cf 70b9 f614 a33b 931b 15ba
000003a0: 5ebe a7b8 4b27 bdb7 8b1c 00ba 2599 4f3b
000003b0: dcb8 983b 50e3 b6b9 e693 323a fe3c 2d3b
000003c0: 2271 063c 9dcb 12ba 0d34 063c e961 2d3a
000003d0: 1929 8db6 cca3 3138 45c2 d537 8258 32b7
000003e0: 7268 6236 361b 1c37 a446 f0b9 7a85 19ba
000003f0: 8af4 dbbb b3e3 04bb c9f0 2bbd 0729 8d3a

lstm.weight_hh_l0 f4 [256, 64]
-0.00038314165 7.258861e-05 0.010217952 0.006502607 -0.026970001 2.8689283e-07 -6.962958e-05 0.0005272125
-0.002037609 0.0029710522 0.00010837048 -3.0184588e-05 -4.2748055e-05 2.049276e-05 1.33425165e-05 -0.0002515491
4.079127e-06 0.00053370744 -1.3842148e-05 0.00020055906 -8.687069e-06 -0.0005620438 -0.000116127034 0.0017270606
8.36231e-06 -3.28282e-05 0.000488588 -4.9379887e-05 0.004896978 -0.000114933006 -2.6446027e-05 0.00011461347
-2.2562865e-05 0.00011546394 0.00010111658 -0.01991365 -0.0005647282 2.0503907e-05 0.00010511106 4.7608577e-05
-7.044641e-05 0.004319957 -0.0005816036 0.0005302517 4.983944e-06 -6.648968e-05 9.61591e-06 -0.00027066332
0.0005860705 0.00020572757 0.00023149428 9.451421e-06 0.0016929097 -1.0751153e-06 3.2520452e-06 8.011433e-05
0.00015861461 -1.16217825e-05 -4.593139e-05 8.3873834e-05 -0.00051627145 5.1090577e-05 7.1881586e-05 8.726406e-05
-0.000109638 -8.523013e-05 -6.43288e-05 1.0676948e-05 -0.0040339716 -0.0005422336 -2.2482793e-05 -0.013379809
-3.133663e-06 0.00017184604 -7.567136e-05 2.3883968e-05 -3.5565924e-06 0.00051172485 -1.5456144e-05 0.00010736033
-0.0005239943 6.4948144e-05 -1.0723555e-05 0.00057969365 -0.00023686881 -3.8790176e-06 -6.544117e-05 3.5840362e-06
0.00015863757 0.00061419327 1.6958822e-05 -1.4351227e-05 -0.0007760313 -0.000106487845 0.00010345537 -0.006371554
7.139356e-05 8.074798e-05 -0.01099608 -9.551113e-07 -7.497653e-05 1.7701886e-05 7.303436e-05 0.000104599414
-2.2025708e-06 -5.795817e-06 1.0217195e-07 -0.0003146861 -1.3038087e-06 0.00017703837 2.4252888e-05 -6.9548296e-05
-0.007034226 7.608157e-05 0.0022834083 -9.324028e-06 -5.9733815e-05 9.362594e-05 -8.223761e-05 2.3040773e-05
7.205514e-05 -0.00057981425 -1.3356373e-05 -5.6488065e-05 -0.00041649098 -3.11417e-05 -0.00026485554 -6.719866e-05
2.6522585e-07 -0.0021998573 -6.7527635e-06 -9.763714e-06 -0.00015383441 5.0171067e-05 7.7114e-05 -8.32802e-05
3.284855e-06 -0.001699042 -0.026895927 0.00015778725 -0.001848015 -0.015946947 -7.579531e-06 0.0005844801
-4.6308364e-06 6.301738e-05 2.2575125e-05 -0.0050967443 -1.0018084e-06 0.00593299 -2.547306e-06 -0.00010299156
0.011662228 0.0005864964 5.227809e-06 2.93478e-05 -6.514945e-05 -0.000115227514 -4.208406e-06 0.021407917
-9.8037454e-08 -2.0856921e-06 7.4868453e-06 0.00036686528 0.0004717213 0.00017559972 0.0006777956 0.000111613845
1.6605407e-05 0.00036495828 -0.00013508265 -5.0681498e-05 0.0056110914 0.0004754675 -0.0038938376 1.1786293e-05
0.00034899416 0.0005274501 7.548485e-05 -6.748181e-05 -6.038035e-06 -0.00010192456 -4.8812575e-07 1.1192572e-05
-0.00058290805 5.431181e-05 -8.736447e-06 -1.634025e-05 6.106118e-05 -0.00058660225 0.00583443 0.00023419237
0.00046462787 -1.5984275e-05 -0.0039006814 5.8045065e-05 0.000114605195 1.3463804e-05 7.291599e-05 -2.131553e-05
2.3646398e-05 3.2014323e-05 -2.9280463e-06 -4.558204e-05 -1.1658855e-06 0.018398972 0.0005484396 1.3145412e-05
6.9575494e-06 -6.9448804e-05 0.00032619736 2.76269e-05 4.7139697e-06 3.5855728e-06 -0.0005756126 1.3940761e-05
-3.627467e-05 -0.0002215905 -5.609274e-06 -9.2054535e-05 -2.0672174e-05 -1.6397682e-06 -0.00028216408 1.0927296e-05
1.5766198e-05 -1.0662098e-05 0.000723706 0.0005866149 -0.00027067235 -8.130358e-05 6.225962e-05 0.0005432699
5.9368824e-05 7.1663526e-05 0.00058621215 6.648884e-05 -2.9451605e-06 0.00011107682 -5.4011703e-05 0.00057498564
-0.0006184429 -4.948556e-06 7.086594e-06 7.2178525e-05 -0.0005682722 -1.14128725e-05 -7.232812e-05 -0.00011504244
0.000586567 9.709326e-05 -5.7380883e-05 -0.0062484946 -6.8836454e-07 3.757633e-05 0.0019868864 -5.1946925e-05
00000000: 67e0 c8b9 b73a 9838 3269 273c d213 d53b
00000010: 31f0 dcbc 4006 9a34 1906 92b8 a234 0a3a
00000020: 6889 05bb fcb5 423b f544 e338 e934 fdb7
00000030: 604c 33b8 dee7 ab37 acd9 5f37 59e2 83b9
00000040: 6fdf 8836 80e8 0b3a 933b 68b7 2a4d 5239
00000050: adbe 11b7 1f56 13ba 3a89 f3b8 8a5e e23a
00000060: d94b 0c37 03b1 09b8 9614 003a 401d 4fb8
00000070: d476 a03b 3008 f1b8 69d8 ddb7 a35c f038
00000080: 6245 bdb7 3b25 f238 8d0e d438 f321 a3bc
00000090: 450a 14ba ceff ab37 126f dc38 52af 4738
000000a0: a1bc 93b8 6d8e 8d3b c276 18ba 9700 0b3a
000000b0: c13b a736 6070 8bb8 0554 2137 d1e7 8db9
000000c0: 87a2 193a 93b8 5739 46bd 7239 8b91 1e37
000000d0: a0e4 dd3a ae4c 90b5 b63d 5a36 0e03 a838
000000e0: c951 2639 2dfb 42b7 74a6 40b8 6ce5 af38
000000f0: 6456 07ba 174a 5638 22bf 9638 8901 b738
00000100: 74ed e5b8 94bd b2b8 43e8 86b8 2421 3337
00000110: 682f 84bb ae24 0eba 6e99 bcb7 fd36 5bbc
00000120: ec4b 52b6 9231 3439 c1b1 9eb8 6e5a c837
00000130: cbad 6eb6 4625 063a d1a7 81b7 a326 e138
00000140: aa5c 09ba c534 8838 51e9 33b7 95f6 173a
00000150: fd5f 78b9 8228 82b6 763d 89b8 4685 7036
00000160: f357 2639 d001 213a cb42 8e37 0dc6 70b7
00000170: 946e 4bba 3a52 dfb8 2ef6 d838 78c8 d0bb
00000180: 20b9 9538 3e57 a938 e728 34bc 6031 80b5
00000190: b83c 9db8 837e 9437 062a 9938 625c db38
000001a0: e1cf 13b6 b079 c2b6 a069 db33 74fc a4b9
000001b0: 87fe aeb5 60a3 3939 ae72 cb37 75da 91b8
000001c0: 5d7f e6bb fb8d 9f38 3ca5 153b 656e 1cb7
000001d0: b28a 7ab8 0b59 c438 fb76 acb8 af47 c137
000001e0: 4f1c 9738 adfe 17ba 2f15 60b7 99ed 6cb8
000001f0: 795c dab9 259e 02b8 4fdc 8ab9 02ed 8cb8
00000200: 5d64 8e34 7b2b 10bb cc95 e2b6 d5ce 23b7
00000210: 9c4e 21b9 c66e 5238 43b8 a138 b8a6 aeb8
00000220: 6171 5c36 64b2 deba d954 dcbc b173 2539
00000230: 1839 f2ba 2ca3 82bc ad53 feb6 cc37 193a
00000240: 9562 9bb6 3328 8438 b65f bd37 9702 a7bb
00000250: e075 86b5 8769 c23b 62f2 2ab6 2cfd d7b8
00000260: ee12 3f3c 1bbf 193a 8a6a af36 ec2f f637
00000270: d8a0 88b8 4da6 f1b8 ef35 8db6 a85f af3c
00000280: a988 d2b3 ebf7 0bb6 8337 fb36 d357 c039
00000290: 5c51 f739 3121 3839 18ae 313a 3a12 ea38
000002a0: d74b 8b37 df57 bf39 f9a4 0db9 d892 54b8
000002b0: 3fdd b73b 2b48 f939 c12f 7fbb bebd 4537
000002c0: 34f9 b639 9444 0a3a 9f4d 9e38 0585 8db8
000002d0: 539a cab6 55c0 d5b8 bf07 03b5 bbc7 3b37
000002e0: 4cce 18ba ddcc 6338 c192 12b7 6b12 89b7
000002f0: f90d 8038 36c6 19ba bf2e bf3b 8991 7539
00000300: 4c99 f339 f815 86b7 93a2 7fbb 6a75 7338
00000310: 3258 f038 99e2 6137 79ea 9838 c1ce b2b7
00000320: 415c c637 1e47 0638 747f 44b6 582f 3fb8
00000330: 857b 9cb5 71b9 963c 29c5 0f3a 1d8b 5c37
00000340: e574 e936 0ba5 91b8 7805 ab39 51c0 e737
00000350: b12c 9e36 ac9f 7036 b5e4 16ba 1de3 6937
00000360: a125 18b8 bf5a 68b9 4c37 bcb6 670d c1b8
00000370: 2869 adb7 0216 dcb5 6cef 93b9 6154 3737
00000380: a741 8437 5de1 32b7 16b7 3d3a 0fc7 193a
00000390: 07e9 8db9 8781 aab8 6191 8238 3a6a 0e3a
000003a0: ca02 7938 104a 9638 08ac 193a ed6f 8b38
000003b0: 79a5 45b6 eaf1 e838 a08a 62b8 a2ba 163a
000003c0: 001f 22ba c60b a6b6 61c9 ed36 8d5e 9738
000003d0: 1af8 14ba ea79 3fb7 ddae 97b8 f142 f1b8
000003e0: d8c3 193a 8c9e cb38 41ac 70b8 2cc0 ccbb
000003f0: 0dc8 38b5 479b 1d38 6c36 023b 96e1 59b8

lstm.bias_ih_l0 f4 [256]
-1.8603452e-06 -5.6507448e-09 -5.8549254e-10 -2.419159e-07 -8.8999724e-07 -6.172532e-08 -2.2656556e-07 3.831641e-10
-3.0218368e-07 3.4580833e-05 -1.9323137e-08 8.5144495e-07 -8.481171e-06 -3.358922e-07 -2.1470534e-05 1.9163176e-08
1.4076983e-06 -1.8779975e-06 3.2164e-05 6.470039e-11 8.73131e-08 5.7435236e-06 2.1328758e-07 -2.1804976e-08
4.0575343e-12 1.13337215e-07 3.9029968e-07 1.8243224e-10 -1.1541125e-09 -1.4607751e-08 1.0818495e-09 4.575914e-08
-1.3703036e-10 0.000114441245 7.4415235e-10 7.748692e-08 -3.7927265e-08 -3.5824842e-06 4.5813388e-12 -6.602945e-07
1.3662961e-09 1.1716192e-10 0.00020624996 -2.0834489e-06 6.867394e-07 1.2093228e-09 4.9021146e-08 -2.8392138e-05
-5.918027e-11 -1.5851342e-09 -9.226205e-06 -2.673102e-11 4.5328644e-08 -1.1081099e-10 4.019849e-05 -6.090391e-11
-5.314894e-07 -3.2381563e-06 -3.5897425e-05 7.788487e-09 -1.8550168e-09 -2.7096844e-08 2.400993e-12 -8.5762695e-06
1.02963096e-10 -8.3296375e-10 -6.8686906e-10 2.7271845e-09 9.589466e-10 0.00014829397 -1.2397943e-07 0.00011026755
-2.8071298e-07 3.1203166e-05 -3.184041e-08 -6.3613747e-06 -0.00143779 -5.4273496e-06 -3.0399625e-07 1.735651e-08
1.6446671e-05 1.7945202e-05 -3.943548e-06 -4.1153994e-10 1.3433659e-07 3.8892492e-07 2.0057553e-07 -1.8311292e-08
6.3294044e-12 7.567523e-08 1.0908822e-06 7.712972e-10 -1.2165656e-07 6.8689e-10 1.466725e-09 0.00089753536
-6.830965e-11 -3.9824158e-07 1.8418485e-10 3.3288888e-08 2.2776984e-12 -6.805088e-06 2.394346e-11 1.140137e-05
6.1587846e-09 3.484096e-10 -0.00015751677 -2.043139e-06 4.0470428e-07 4.679259e-12 2.5027028e-08 -7.264614e-06
-2.0865473e-11 -1.0740172e-06 -3.8697428e-05 3.673363e-10 7.8948235e-09 -1.6099219e-10 -1.4231688e-05 -2.0925846e-13
1.7434253e-05 -5.994933e-06 -4.3604865e-05 6.6306605e-09 -3.340107e-07 -2.2253806e-07 6.3569696e-12 -1.828527e-08
6.1086885e-06 -3.4439753e-09 6.892103e-10 2.1985225e-07 6.476462e-11 2.0451849e-07 4.7057918e-09 2.2344517e-08
-2.2303847e-07 -2.8580365e-07 6.8261186e-10 6.419985e-09 0.0017938484 6.9151147e-09 -9.0387e-08 3.0181007e-09
6.6662866e-09 3.2343976e-07 3.5919405e-07 5.4177884e-09 -2.9692375e-09 6.8132613e-12 -1.2171458e-07 -3.924135e-10
-1.8633543e-12 2.0404155e-08 5.82158e-07 -1.0632516e-09 7.504288e-06 -1.0135697e-10 -4.8790566e-10 -6.949299e-09
6.482445e-10 -6.6886746e-06 -2.0840361e-10 9.427571e-09 -5.0082785e-12 -3.0945434e-11 1.6641332e-11 2.7332499e-07
6.7328706e-08 -1.7742948e-11 4.8385427e-05 1.3875294e-11 1.14785035e-08 -2.6250663e-10 -2.7530744e-08 -7.7245925e-11
-2.1088317e-14 1.1695316e-07 -6.4790806e-06 3.2486116e-09 -1.9689182e-07 -3.8403358e-10 1.7374157e-06 1.0496086e-11
-3.5746842e-12 2.5098694e-11 1.4066075e-08 -4.7108422e-08 -2.1000501e-08 -1.731016e-07 1.0457847e-12 3.110465e-11
1.7139242e-05 -1.9713235e-08 -3.0056585e-10 -2.7619672e-07 3.355656e-05 -2.180633e-06 -9.997256e-08 -3.5013397e-06
-2.9786017e-07 3.432495e-06 4.826985e-05 -1.5495723e-05 1.9152355e-07 -3.2816697e-05 -1.6149143e-06 -1.1665235e-06
-2.3213922e-06 -2.7599394e-06 -1.8350922e-09 -3.1489467e-06 7.797765e-10 -1.4173316e-06 2.776422e-07 2.4717863e-07
1.0394818e-05 1.3457893e-07 -6.168042e-07 -2.6817518e-06 7.407685e-08 -1.0410463e-08 -2.0520934e-08 2.5004509e-05
1.5208684e-09 -3.9666675e-06 1.65035e-06 -2.433451e-07 -3.3741601e-12 9.604019e-05 -2.1297293e-09 -3.9729585e-07
-1.3054679e-05 -4.700338e-06 -7.887042e-08 -6.17208e-06 1.5344797e-08 1.2535669e-09 1.054167e-08 -6.059837e-06
-5.8353357e-06 -8.7428794e-05 -3.225001e-08 -6.3383595e-07 2.2702558e-09 4.700447e-09 -4.0214662e-08 1.0030186e-08
3.3566576e-07 -1.0942152e-08 -1.1259402e-05 -3.7245788e-06 -9.397342e-06 -2.7776844e-06 -9.209926e-06 -6.3950947e-06
00000000: f9b0 f9b5 7a28 c2b1 60f0 20b0 abe0 81b4
00000010: 25e8 6eb5 db8d 84b3 de45 73b4 8ea5 d22f
00000020: cf3b a2b4 e30a 1138 07fc a5b2 da8e 6435
00000030: 5a4a 0eb7 ac54 b4b4 9f1b b4b7 459c a432
00000040: 25f0 bc35 810f fcb5 d5e7 0638 1547 8e2e
00000050: e280 bb33 7eb8 c036 0b04 6534 a64d bbb2
00000060: 05c3 8e2c cb63 f333 618a d134 1c96 482f
00000070: b99e 9eb0 91f5 7ab2 32b0 9430 b588 4433
00000080: 9eaa 16af 2d00 f038 118d 4c30 e366 a633
00000090: 78e5 22b3 9c6a 70b6 0831 a12c 183f 31b5
000000a0: 45c8 bb30 26d2 002f cd44 5839 61d1 0bb6
000000b0: 5f58 3835 4335 a630 528b 5233 a72b eeb7
000000c0: 8823 82ae f4db d9b0 40ca 1ab7 e820 ebad
000000d0: 5faf 4233 0bad f3ae cd9a 2838 daed 85ae
000000e0: acab 0eb5 1a4f 59b6 9190 16b8 21ce 0532
000000f0: 9af3 feb0 97c2 e8b2 72f4 282c cce2 0fb7
00000100: 126b e22e 9df6 64b0 1dce 3cb0 2369 3b31
00000110: efcb 8330 5c7f 1b39 351f 05b4 713f e738
00000120: e6b4 96b4 25e0 0238 e7c0 08b3 cb73 d5b6
00000130: 3a74 bcba 941c b6b6 ed34 a3b4 5e17 9532
00000140: f5f6 8937 0789 9637 d252 84b6 193f e2af
00000150: 293e 1034 6fcd d034 c85d 5734 f54a 9db2
00000160: 35b2 de2c e682 a233 6d6a 9235 3703 5430
00000170: b3a0 02b4 96cf 3c30 cc95 c930 9448 6b3a
00000180: ea36 96ae e8cd d5b4 6d83 4a2f 85f9 0e33
00000190: 5e47 202c 4357 e4b6 e19b d22d 8348 3f37
000001a0: 3e9d d331 4b8a bf2f 162b 25b9 dc1c 09b6
000001b0: 2246 d934 05a3 a42c 04fb d632 8fc2 f3b6
000001c0: de88 b7ad f326 90b5 0c4f 22b8 fdf1 c92f
000001d0: cda1 0732 4603 31af a2c4 6eb7 a59a 6baa
000001e0: c63f 9237 1528 c9b6 5ee4 36b8 e8d3 e331
000001f0: 1552 b3b4 ccf2 6eb4 7eaa df2c bc11 9db2
00000200: 3cf9 cc36 0eab 6cb1 dd72 3d30 8710 6c34
00000210: 3d6b 8e2e 9d99 5b34 95b0 a131 1df0 bf32
00000220: 597c 6fb4 8e70 99b4 8aa2 3b30 c996 dc31
00000230: 901f eb3a fe99 ed31 c71a c2b3 fd66 4f31
00000240: 470d e531 39a5 ad34 41d7 c034 5f27 ba31
00000250: 610b 4cb1 67b8 ef2c a6b0 02b4 4abb d7af
00000260: 351f 03ac 3645 af32 9845 1c35 d721 92b0
00000270: 58cd fb36 e7e2 deae 4f1d 06b0 aec6 eeb1
00000280: 2730 3230 476f e0b6 6724 65af e5f6 2132
00000290: 9036 b0ac 7619 08ae f360 922d 80bd 9234
000002a0: 5996 9033 9111 9cad 75f1 4a38 c518 742d
000002b0: fe32 4532 8650 90af bf7c ecb2 97dd a9ae
000002c0: 59f2 bda8 ae27 fb33 e166 d9b6 2e3e 5f31
000002d0: 3669 53b4 ec1f d3af 2631 e935 2ba6 382d
000002e0: c98b 7bac 3cc5 dc2d 41a7 7132 4254 4ab3
000002f0: 9764 b4b2 cedd 39b4 5d2e 932b b9cc 082e
00000300: 3ec6 8f37 dd55 a9b2 e23c a5af 3048 94b4
00000310: 15bf 0c38 fd56 12b6 7fb0 d6b3 8ff8 6ab6
00000320: 97e9 9fb4 d159 6636 5b75 4a38 d0fc 81b7
00000330: 98a5 4d34 a9a4 09b8 08c0 d8b5 7191 9cb5
00000340: 37c9 1bb6 6637 39b6 9136 fcb0 7e52 53b6
00000350: e557 5630 253b beb5 da0e 9534 f9b3 8434
00000360: 6765 2e37 c680 1034 7692 25b5 25f8 33b6
00000370: 2e14 9f33 b3d9 32b2 0346 b0b2 c6c0 d137
00000380: cd06 d130 6a19 85b6 9881 dd35 19a5 82b4
00000390: 776f 6dac 2f69 c938 985a 12b1 ed4b d5b4
000003a0: 6b05 5bb7 99b7 9db6 795f a9b3 c319 cfb6
000003b0: 91cf 8332 f749 ac30 c11a 3532 9a55 cbb6
000003c0: 27cd c3b6 fa59 b7b8 4383 0ab3 e024 2ab5
000003d0: c302 1c31 9281 a131 7db8 2cb3 3951 2c32
000003e0: 8d35 b434 18fc 3bb2 c3e6 3cb7 c7f3 79b6
000003f0: 47a9 1db7 4168 3ab6 5584 1ab7 7295 d6b6

lstm.bias_hh_l0 f4 [256]
-1.8603452e-06 -5.6507448e-09 -5.8549254e-10 -2.419159e-07 -8.8999724e-07 -6.172532e-08 -2.2656556e-07 3.831641e-10
-3.0218368e-07 3.4580833e-05 -1.9323137e-08 8.5144495e-07 -8.481171e-06 -3.358922e-07 -2.1470534e-05 1.9163176e-08
1.4076983e-06 -1.8779975e-06 3.2164e-05 6.470039e-11 8.73131e-08 5.7435236e-06 2.1328758e-07 -2.1804976e-08
4.0575343e-12 1.13337215e-07 3.9029968e-07 1.8243224e-10 -1.1541125e-09 -1.4607751e-08 1.0818495e-09 4.575914e-08
-1.3703036e-10 0.000114441245 7.4415235e-10 7.748692e-08 -3.7927265e-08 -3.5824842e-06 4.5813388e-12 -6.602945e-07
1.3662961e-09 1.1716192e-10 0.00020624996 -2.0834489e-06 6.867394e-07 1.2093228e-09 4.9021146e-08 -2.8392138e-05
-5.918027e-11 -1.5851342e-09 -9.226205e-06 -2.673102e-11 4.5328644e-08 -1.1081099e-10 4.019849e-05 -6.090391e-11
-5.314894e-07 -3.2381563e-06 -3.5897425e-05 7.788487e-09 -1.8550168e-09 -2.7096844e-08 2.400993e-12 -8.5762695e-06
1.02963096e-10 -8.3296375e-10 -6.8686906e-10 2.7271845e-09 9.589466e-10 0.00014829397 -1.2397943e-07 0.00011026755
-2.8071298e-07 3.1203166e-05 -3.184041e-08 -6.3613747e-06 -0.00143779 -5.4273496e-06 -3.0399625e-07 1.735651e-08
1.6446671e-05 1.7945202e-05 -3.943548e-06 -4.1153994e-10 1.3433659e-07 3.8892492e-07 2.0057553e-07 -1.8311292e-08
6.3294044e-12 7.567523e-08 1.0908822e-06 7.712972e-10 -1.2165656e-07 6.8689e-10 1.466725e-09 0.00089753536
-6.830965e-11 -3.9824158e-07 1.8418485e-10 3.3288888e-08 2.2776984e-12 -6.805088e-06 2.394346e-11 1.140137e-05
6.1587846e-09 3.484096e-10 -0.00015751677 -2.043139e-06 4.0470428e-07 4.679259e-12 2.5027028e-08 -7.264614e-06
-2.0865473e-11 -1.0740172e-06 -3.8697428e-05 3.673363e-10 7.8948235e-09 -1.6099219e-10 -1.4231688e-05 -2.0925846e-13
1.7434253e-05 -5.994933e-06 -4.3604865e-05 6.6306605e-09 -3.340107e-07 -2.2253806e-07 6.3569696e-12 -1.828527e-08
6.1086885e-06 -3.4439753e-09 6.892103e-10 2.1985225e-07 6.476462e-11 2.0451849e-07 4.7057918e-09 2.2344517e-08
-2.2303847e-07 -2.8580365e-07 6.8261186e-10 6.419985e-09 0.0017938484 6.9151147e-09 -9.0387e-08 3.0181007e-09
6.6662866e-09 3.2343976e-07 3.5919405e-07 5.4177884e-09 -2.9692375e-09 6.8132613e-12 -1.2171458e-07 -3.924135e-10
-1.8633543e-12 2.0404155e-08 5.82158e-07 -1.0632516e-09 7.504288e-06 -1.0135697e-10 -4.8790566e-10 -6.949299e-09
6.482445e-10 -6.6886746e-06 -2.0840361e-10 9.427571e-09 -5.0082785e-12 -3.0945434e-11 1.6641332e-11 2.7332499e-07
6.7328706e-08 -1.7742948e-11 4.8385427e-05 1.3875294e-11 1.14785035e-08 -2.6250663e-10 -2.7530744e-08 -7.7245925e-11
-2.1088317e-14 1.1695316e-07 -6.4790806e-06 3.2486116e-09 -1.9689182e-07 -3.8403358e-10 1.7374157e-06 1.0496086e-11
-3.5746842e-12 2.5098694e-11 1.4066075e-08 -4.7108422e-08 -2.1000501e-08 -1.731016e-07 1.0457847e-12 3.110465e-11
1.7139242e-05 -1.9713235e-08 -3.0056585e-10 -2.7619672e-07 3.355656e-05 -2.180633e-06 -9.997256e-08 -3.5013397e-06
-2.9786017e-07 3.432495e-06 4.826985e-05 -1.5495723e-05 1.9152355e-07 -3.2816697e-05 -1.6149143e-06 -1.1665235e-06
-2.3213922e-06 -2.7599394e-06 -1.8350922e-09 -3.1489467e-06 7.797765e-10 -1.4173316e-06 2.776422e-07 2.4717863e-07
1.0394818e-05 1.3457893e-07 -6.168042e-07 -2.6817518e-06 7.407685e-08 -1.0410463e-08 -2.0520934e-08 2.5004509e-05
1.5208684e-09 -3.9666675e-06 1.65035e-06 -2.433451e-07 -3.3741601e-12 9.604019e-05 -2.1297293e-09 -3.9729585e-07
-1.3054679e-05 -4.700338e-06 -7.887042e-08 -6.17208e-06 1.5344797e-08 1.2535669e-09 1.054167e-08 -6.059837e-06
-5.8353357e-06 -8.7428794e-05 -3.225001e-08 -6.3383595e-07 2.2702558e-09 4.700447e-09 -4.0214662e-08 1.0030186e-08
3.3566576e-07 -1.0942152e-08 -1.1259402e-05 -3.7245788e-06 -9.397342e-06 -2.7776844e-06 -9.209926e-06 -6.3950947e-06
00000000: f9b0 f9b5 7a28 c2b1 60f0 20b0 abe0 81b4
00000010: 25e8 6eb5 db8d 84b3 de45 73b4 8ea5 d22f
00000020: cf3b a2b4 e30a 1138 07fc a5b2 da8e 6435
00000030: 5a4a 0eb7 ac54 b4b4 9f1b b4b7 459c a432
00000040: 25f0 bc35 810f fcb5 d5e7 0638 1547 8e2e
00000050: e280 bb33 7eb8 c036 0b04 6534 a64d bbb2
00000060: 05c3 8e2c cb63 f333 618a d134 1c96 482f
00000070: b99e 9eb0 91f5 7ab2 32b0 9430 b588 4433
00000080: 9eaa 16af 2d00 f038 118d 4c30 e366 a633
00000090: 78e5 22b3 9c6a 70b6 0831 a12c 183f 31b5
000000a0: 45c8 bb30 26d2 002f cd44 5839 61d1 0bb6
000000b0: 5f58 3835 4335 a630 528b 5233 a72b eeb7
000000c0: 8823 82ae f4db d9b0 40ca 1ab7 e820 ebad
000000d0: 5faf 4233 0bad f3ae cd9a 2838 daed 85ae
000000e0: acab 0eb5 1a4f 59b6 9190 16b8 21ce 0532
000000f0: 9af3 feb0 97c2 e8b2 72f4 282c cce2 0fb7
00000100: 126b e22e 9df6 64b0 1dce 3cb0 2369 3b31
00000110: efcb 8330 5c7f 1b39 351f 05b4 713f e738
00000120: e6b4 96b4 25e0 0238 e7c0 08b3 cb73 d5b6
00000130: 3a74 bcba 941c b6b6 ed34 a3b4 5e17 9532
00000140: f5f6 8937 0789 9637 d252 84b6 193f e2af
00000150: 293e 1034 6fcd d034 c85d 5734 f54a 9db2
00000160: 35b2 de2c e682 a233 6d6a 9235 3703 5430
00000170: b3a0 02b4 96cf 3c30 cc95 c930 9448 6b3a
00000180: ea36 96ae e8cd d5b4 6d83 4a2f 85f9 0e33
00000190: 5e47 202c 4357 e4b6 e19b d22d 8348 3f37
000001a0: 3e9d d331 4b8a bf2f 162b 25b9 dc1c 09b6
000001b0: 2246 d934 05a3 a42c 04fb d632 8fc2 f3b6
000001c0: de88 b7ad f326 90b5 0c4f 22b8 fdf1 c92f
000001d0: cda1 0732 4603 31af a2c4 6eb7 a59a 6baa
000001e0: c63f 9237 1528 c9b6 5ee4 36b8 e8d3 e331
000001f0: 1552 b3b4 ccf2 6eb4 7eaa df2c bc11 9db2
00000200: 3cf9 cc36 0eab 6cb1 dd72 3d30 8710 6c34
00000210: 3d6b 8e2e 9d99 5b34 95b0 a131 1df0 bf32
00000220: 597c 6fb4 8e70 99b4 8aa2 3b30 c996 dc31
00000230: 901f eb3a fe99 ed31 c71a c2b3 fd66 4f31
00000240: 470d e531 39a5 ad34 41d7 c034 5f27 ba31
00000250: 610b 4cb1 67b8 ef2c a6b0 02b4 4abb d7af
00000260: 351f 03ac 3645 af32 9845 1c35 d721 92b0
00000270: 58cd fb36 e7e2 deae 4f1d 06b0 aec6 eeb1
00000280: 2730 3230 476f e0b6 6724 65af e5f6 2132
00000290: 9036 b0ac 7619 08ae f360 922d 80bd 9234
000002a0: 5996 9033 9111 9cad 75f1 4a38 c518 742d
000002b0: fe32 4532 8650 90af bf7c ecb2 97dd a9ae
000002c0: 59f2 bda8 ae27 fb33 e166 d9b6 2e3e 5f31
000002d0: 3669 53b4 ec1f d3af 2631 e935 2ba6 382d
000002e0: c98b 7bac 3cc5 dc2d 41a7 7132 4254 4ab3
000002f0: 9764 b4b2 cedd 39b4 5d2e 932b b9cc 082e
00000300: 3ec6 8f37 dd55 a9b2 e23c a5af 3048 94b4
00000310: 15bf 0c38 fd56 12b6 7fb0 d6b3 8ff8 6ab6
00000320: 97e9 9fb4 d159 6636 5b75 4a38 d0fc 81b7
00000330: 98a5 4d34 a9a4 09b8 08c0 d8b5 7191 9cb5
00000340: 37c9 1bb6 6637 39b6 9136 fcb0 7e52 53b6
00000350: e557 5630 253b beb5 da0e 9534 f9b3 8434
00000360: 6765 2e37 c680 1034 7692 25b5 25f8 33b6
00000370: 2e14 9f33 b3d9 32b2 0346 b0b2 c6c0 d137
00000380: cd06 d130 6a19 85b6 9881 dd35 19a5 82b4
00000390: 776f 6dac 2f69 c938 985a 12b1 ed4b d5b4
000003a0: 6b05 5bb7 99b7 9db6 795f a9b3 c319 cfb6
000003b0: 91cf 8332 f749 ac30 c11a 3532 9a55 cbb6
000003c0: 27cd c3b6 fa59 b7b8 4383 0ab3 e024 2ab5
000003d0: c302 1c31 9281 a131 7db8 2cb3 3951 2c32
000003e0: 8d35 b434 18fc 3bb2 c3e6 3cb7 c7f3 79b6
000003f0: 47a9 1db7 4168 3ab6 5584 1ab7 7295 d6b6

feature_extractor.0.weight f4 [32, 64]
-0.005220235 0.00011517117 -1.529911e-05 -1.0601716e-05 0.005345854 -0.0060000676 -6.330349e-05 0.0057997727
1.5395986e-05 0.006588867 0.0026210444 -0.00017376496 0.00317723 -0.005008537 -0.0052207666 8.515424e-05
-0.0062201144 -0.006268602 -0.0033898023 9.804089e-06 -1.1490289e-05 0.006220401 6.5163564e-05 -1.979497e-05
-0.00083154486 0.00011524519 0.006267099 -0.0062674084 -9.720759e-05 2.1905791e-05 0.0062646326 0.00553585
0.000103780905 -0.0037159403 -7.827428e-05 7.873209e-05 3.3980887e-05 -0.00084014866 -7.2578194e-05 0.0063270438
-3.133083e-05 -0.006192576 0.00036620285 0.00013908041 -0.0001109525 8.5228035e-05 -3.1852076e-05 0.00045474386
1.2971128e-05 -0.0035451285 -0.0061825104 0.00324737 2.4875322e-05 1.8665469e-05 -0.0051151807 7.1767055e-05
0.006266514 -0.005226701 -0.0062942333 -0.0006040097 -0.0048187138 1.757955e-05 0.005786035 0.0052632596
-0.030201722 0.00011175606 -0.00011514156 1.8391254e-06 0.010350925 -0.018131742 -3.6384496e-05 0.012969379
3.376681e-05 0.035316046 0.004820113 0.0007240166 -0.018681098 -0.0075238156 -0.033987552 0.00020725786
-0.042211566 -0.025429389 -0.007662051 4.9819806e-05 7.138104e-05 0.0068897433 1.7559096e-05 5.553501e-06
-0.0016718385 0.00011448112 0.020967288 -0.031649623 2.6994654e-05 1.6101214e-05 0.045228478 0.022210998
6.121052e-06 -0.0072438847 6.7423425e-05 8.609569e-05 -2.7696145e-05 -0.00255657 2.7070293e-05 0.03063098
-0.0025579445 -0.021039091 -0.036844622 0.00039568596 5.201908e-05 -1.4845178e-06 2.9395445e-05 0.0008727298
0.00058697985 -0.007978494 -0.04144541 0.0044665956 0.00011527459 7.5710473e-06 -0.023082297 -7.3132505e-05
0.027209325 -0.041212834 -0.012926351 -0.0268705 -0.009015436 2.901141e-05 0.011635637 0.016360646
-0.005355631 -1.4364828e-05 2.2149658e-05 7.6862634e-05 0.0067390585 -0.0053781923 -0.00011390335 0.0046645226
-1.0756618e-05 0.0065104607 0.004240687 -0.0009272473 0.00120957 -0.0056836098 -0.004690372 0.000152165
-0.00563014 -0.0065423404 -0.0052630208 6.623371e-05 8.9604204e-05 0.004967486 0.000115206334 9.778656e-06
-0.0013739264 7.24067e-05 0.006855248 -0.0069327555 -9.868221e-05 -0.00011014526 0.0069049355 0.005637255
6.436431e-06 -0.0036037704 1.602872e-05 1.2548795e-05 8.173541e-06 -0.0019554016 -5.075692e-05 0.0063477773
-0.00022785357 -0.006737764 -0.00033099428 9.65663e-05 1.31488605e-05 -3.6144581e-06 6.1257044e-05 0.0011595263
3.299435e-05 -0.0047325534 -0.0068209223 0.0032785938 -0.000109090695 6.7943e-05 -0.005520361 0.00011389451
0.006870986 -0.005319357 -0.0055960263 -0.0016037766 -0.00616151 -2.9174691e-05 0.006355389 0.0052296626
-0.0043803207 -5.7520425e-05 -1.5648404e-05 9.7485594e-05 0.0062836893 -0.005071304 7.8931935e-06 0.0058537745
9.5824886e-05 0.0070598507 0.003107153 6.481957e-05 0.007360311 -0.00550434 -0.0058365115 0.000116127805
-0.0068499167 -0.0068005286 -0.003892676 -3.5188175e-05 7.689049e-06 0.0067605074 -6.771219e-06 2.4257104e-05
-0.0011906958 1.448949e-05 0.006346045 -0.006970066 -0.000112591915 6.421186e-05 0.006099897 0.0064030457
-1.5692134e-05 -0.0044151237 -9.573465e-05 3.2514825e-05 2.0126188e-05 -0.00063653616 -9.0954956e-05 0.00525821
5.5366167e-05 -0.0053553116 -0.000113153874 7.123752e-05 1.4094929e-05 -1.0935212e-05 1.1526185e-05 0.00065954315
0.00014322482 -0.005227415 -0.006907175 0.0047551612 -2.520529e-05 -2.2977369e-05 -0.0050616697 -1.9475998e-05
0.006550228 -0.0060213218 -0.006894789 0.0026388322 -0.0056256265 1.9712365e-05 0.007183528 0.0063455217
00000000: 810e abbb 0d88 f138 9756 80b7 06de 31b7
00000010: 462c af3b 379c c4bb cdc1 84b8 050c be3b
00000020: a126 8137 6ce7 d73b d4c5 2b3b ad34 36b9
00000030: 1339 503b a71e a4bb f712 abbb d694 b238
00000040: 1ad2 cbbb d868 cdbb 7227 5ebb 3e7c 2437
00000050: 6ac6 40b7 81d4 cb3b 6ca8 8838 600d a6b7
00000060: 08fc 59ba caaf f138 3d5c cd3b d55e cdbb
00000070: eddb cbb8 54c2 b737 8c47 cd3b 1366 b53b
00000080: f3a4 d938 2287 73bb 2f27 a4b8 f81c a538
00000090: b386 0e38 6c3d 5cba 1f35 98b8 1753 cf3b
000000a0: 3969 03b8 18eb cabb eafe bf39 1dd6 1139
000000b0: 2baf e8b8 74bc b238 e898 05b8 b06a ee39
000000c0: 929e 5937 6355 68bb a896 cabb d4d1 543b
000000d0: 59ab d037 ca93 9c37 3f9d a7bb a581 9638
000000e0: 5457 cd3b bf44 abbb db3f cebb 6856 1eba
000000f0: 4de6 9dbb cc77 9337 c898 bd3b 6c77 ac3b
00000100: 9a69 f7bc 945e ea38 2878 f1b8 ded7 f635
00000110: ed96 293c 0589 94bc 8e9b 18b8 857d 543c
00000120: d6a0 0d38 8fa7 103d 0af2 9d3b eecb 3d3a
00000130: 1a09 99bc 578a f6bb 8836 0bbd 5c53 5939
00000140: 09e6 2cbd 4b51 d0bc f111 fbbb 9cf5 5038
00000150: 67b2 9538 5bc3 e13b df4b 9337 3658 ba36
00000160: 9721 dbba 9515 f038 97c3 ab3c 09a3 01bd
00000170: 9472 e237 1811 8737 7f41 393d d7f3 b53c
00000180: 7063 cd36 1c5e edbb ad65 8d38 468e b438
00000190: 0555 e8b7 218c 27bb 0315 e337 d2ed fa3c
000001a0: 30a3 27bb 2c5a acbc 63ea 16bd 1274 cf39
000001b0: 102f 5a38 a53f c7b5 3d96 f637 e8c7 643a
000001c0: 8ddf 193a 3bb8 02bc aac2 29bd 855c 923b
000001d0: 93bf f138 cd0a fe36 1617 bdbc b75e 99b8
000001e0: 17e6 de3c cace 28bd 0cc9 53bc 861f dcbc
000001f0: 7bb5 13bc 875d f337 66a3 3e3c c306 863c
00000200: 4a7e afbb 7700 71b7 07ce b937 5031 a138
00000210: 52d3 dc3b 8c3b b0bb 65df eeb8 dad8 983b
00000220: 5377 34b7 b455 d53b 76f5 8a3b 8312 73ba
00000230: 6f8a 9e3a 933d babb b1b1 99bb 7b8e 1f39
00000240: 0a7d b8bb 2161 d6bb 6b75 acbb f4e6 8a38
00000250: e4e9 bb38 4bc6 a23b ee9a f138 020f 2437
00000260: 5215 b4ba 0dd9 9738 fda1 e03b 2b2c e3bb
00000270: 9cf3 ceb8 c9fd e6b8 cc42 e23b b9b8 b83b
00000280: 85f8 d736 3c2d 6cbb 6a75 8637 aa88 5237
00000290: 1721 0937 3226 00bb d4e3 54b8 0401 d03b
000002a0: faeb 6eb9 76c8 dcbb 4d89 adb9 a383 ca38
000002b0: ed99 5c37 eb8f 72b6 2077 8038 3ffb 973a
000002c0: 6a63 0a38 8913 9bbb 0b82 dfbb addd 563b
000002d0: 9fc7 e4b8 9f7c 8e38 25e4 b4bb a6da ee38
000002e0: 0226 e13b 004e aebb df5e b7bb d035 d2ba
000002f0: 7ee6 c9bb 2cbc f4b7 de40 d03b 975d ab3b
00000300: cb88 8fbb 1642 71b8 b144 83b7 2e71 cc38
00000310: 68e7 cd3b 2e2d a6bb 026d 0437 05d1 bf3b
00000320: 98f5 c838 5256 e73b 61a1 4b3b beef 8738
00000330: c42e f13b c05d b4bb 3540 bfbb a489 f338
00000340: 4475 e0bb f8d6 debb 441c 7fbb 0497 13b8
00000350: 3700 0137 3f87 dd3b 5434 e3b6 bc7b cb37
00000360: 1f11 9cba e317 7337 7cf2 cf3b 2765 e4bb
00000370: 531f ecb8 7ba9 8638 a5e1 c73b a4d0 d13b
00000380: 9aa2 83b7 beac 90bb 26c5 c8b8 8760 0838
00000390: a9d4 a837 38dd 26ba 12bf beb8 104d ac3b
000003a0: f838 6838 9c7b afbb 064d edb8 5a65 9538
000003b0: 4279 6c37 6176 37b7 9660 4137 31e5 2c3a
000003c0: 9f2e 1639 bc4a abbb 9555 e2bb 2fd1 9b3b
000003d0: f36f d3b7 86bf c0b7 5ddc a5bb 6360 a3b7
000003e0: 4ca3 d63b 824e c5bb afed e1bb 42f0 2c3b
000003f0: 2d57 b8bb fb5b a537 cd63 eb3b 18ee cf3b

feature_extractor.0.bias f4 [32]
0.006275206 0.0342832 0.006766833 0.0070132115 -0.001202881 0.03654872 0.023286175 0.0004947238
0.03760326 0.0024344316 0.00084172137 -0.0004051761 0.0020935268 0.025051834 0.022910303 0.017923368
0.037351876 0.031115524 0.03062681 0.0055694208 0.02298486 0.0057726973 0.03280157 0.031556662
0.0012555171 0.0053147804 -0.00015672331 0.034504212 0.029312901 0.024276193 0.009682282 -0.0002597424
00000000: 3ea0 cd3b 8a6c 0c3d 4fbc dd3b 15cf e53b
00000010: fda9 9dba 1cb4 153d a6c2 be3c 5ab0 013a
00000020: e005 1a3d fc8a 1f3b f7a6 5c3a d16d d4b9
00000030: 8d33 093b 8139 cd3c 63ae bb3c 07d4 923c
00000040: 48fe 183d fce5 fe3c 13e5 fa3c b07f b63b
00000050: bf4a bc3c e528 bd3b f05a 063d 8f41 013d
00000060: 2a90 a43a 9c27 ae3b 1856 24b9 4a54 0d3d
00000070: 9c21 f03c dede c63c 6fa2 1e3c 092e 88b9

feature_extractor.3.weight f4 [16, 32]
0.0059170234 0.023953402 0.0076403692 0.007291434 -0.0012212484 0.036301084 0.029973147 0.0009687182
0.05354136 0.0028666253 0.0006215457 -0.0006164899 0.0022514777 0.008946835 0.01197281 0.018588947
0.052394364 0.03229731 0.032443233 0.004343032 0.013906317 0.005863311 0.046148043 0.030771902
0.0016036152 0.005649248 -0.0008418841 0.046031173 0.019616421 0.0061732205 0.0099690575 -0.00079987996
0.005652923 0.042463295 0.007545948 0.0063119195 -0.0016542317 0.03414713 0.022821672 -0.00028863346
0.049120452 0.0017469386 0.00030516193 -0.00081772776 0.0024679399 0.03367283 0.0225232 0.017560469
0.052606437 0.046752166 0.033752963 0.0061169 0.02816547 0.0043371636 0.02174213 0.038645856
0.0011396457 0.0047301585 -0.0017018074 0.038034394 0.008008265 0.030185174 0.009116041 -0.0008357462
0.006554196 0.02677698 0.0063551473 0.0070929155 -0.0006552776 0.04110059 0.02165361 -0.00014847807
0.010257802 0.0026156623 0.0003811757 -0.00064579915 0.002772249 0.023261622 0.022429736 0.012156815
0.035536863 0.03954748 0.034085017 0.0060204766 0.026113482 0.0058284826 0.026377039 0.038901147
0.0011768728 0.0044097165 -0.0009000171 0.027417075 0.03380534 0.009999835 0.008781222 -0.0005545557
0.0054649212 0.045100503 0.007181063 0.005744169 -0.00044807646 0.017005745 0.026585987 0.0008877285
0.051977437 0.0024603384 0.0008545652 -0.0014033428 0.0026367286 0.025727838 0.019952001 0.025939235
0.029965546 0.029218122 0.040569596 0.005189971 0.03332546 0.0058528003 0.03302783 0.026102861
0.0014145577 0.0055417237 -0.0007966922 0.009905165 0.0349961 0.028917443 0.0100162495 -0.00082090776
0.0067098225 0.030870559 0.0055348566 0.0076391334 -0.0011090684 0.033685826 0.020957073 0.00011951891
0.031157544 0.0027013968 0.00081755855 -0.00080070796 0.0020593985 0.024310842 0.022163847 0.022216208
0.04966937 0.008678822 0.037734587 0.0061076013 0.029686015 0.0046459693 0.037393745 0.028795071
0.0012151942 0.005692292 -0.0008957586 0.030286487 0.02904053 0.030958422 0.010824272 -0.0007759269
0.007320014 0.023855807 0.006012798 0.0062969704 -0.0010462429 0.040110312 0.021594606 9.664602e-05
0.033746034 0.0034614024 -0.00031896037 -0.00039891468 0.0017478361 0.021245629 0.021924706 0.013843189
0.030556036 0.013205657 0.03354349 0.005949622 0.018787006 0.006764187 0.019475339 0.016528506
0.00057273183 0.006037143 -0.00058738445 0.027445083 0.026199955 0.020649586 0.009409267 -0.00064463564
0.006012556 0.022838231 0.0059960396 0.010037072 -0.0010819788 0.025348306 0.018928258 0.000250971
0.0282897 0.003500756 0.00085500756 1.7887205e-05 0.0006275042 0.013727703 0.020199079 0.006129726
0.022480877 0.019630698 0.022492142 0.00815496 0.019694963 0.00835979 0.019925423 0.028168166
0.0011193986 0.0054333955 -0.00021567426 0.023149239 0.021149723 0.007564767 0.009936808 -0.0010400083
0.0067782346 0.043663517 0.0074088373 0.0073930304 -0.0026021597 0.05127203 0.0230573 -9.836849e-06
0.04356844 0.0025755924 0.00036750812 -0.0006355068 0.0023867884 0.016952807 0.026185399 0.029441759
0.04029405 0.035326388 0.03381389 0.006166502 0.03307831 0.006109924 0.01789706 0.044188276
0.00073559675 0.005625692 -0.0009219632 0.051501773 0.034073796 0.020983137 0.0095697045 -0.0012913386
00000000: 97e3 c13b ed39 c43c 105c fa3b fbec ee3b
00000010: 4c12 a0ba 72b0 143d 3f8a f53c 94f1 7d3a
00000020: 2f4e 5b3d fedd 3b3b 3aef 223a f09b 21ba
00000030: 878d 133b bf95 123c 9b29 443c d947 983c
00000040: 799b 563d 2f4a 043d 32e3 043d fe4f 8e3b
00000050: 52d7 633c 0421 c03b bb05 3d3d 5b15 fc3c
00000060: 6630 d23a 541d b93b e3b1 5cba 2f8b 3c3d
00000070: 9eb2 a03c ba48 ca3b 4255 233c 09af 51ba
00000080: 283c b93b feed 2d3d 0044 f73b 38d4 ce3b
00000090: ced2 d8ba dcdd 0b3d 84f4 ba3c ba53 97b9
000000a0: 8732 493d 88f9 e43a 24fe 9f39 c85c 56ba
000000b0: 29bd 213b 85ec 093d 9382 b83c f9da 8f3c
000000c0: d979 573d 337f 3f3d 8c40 0a3d 4770 c83b
000000d0: 46bb e63c c41e 8e3b 8d1c b23c 1e4b 1e3d
000000e0: 2a60 953a 72ff 9a3b 2e0f dfba f4c9 1b3d
000000f0: 1935 033c e646 f73c 725b 153c fa15 5bba
00000100: 95c4 d63b 665b db3c d73e d03b b06b e83b
00000110: efc6 2bba 1859 283d e962 b13c c7b0 1bb9
00000120: 5710 283c 886b 2b3b 89d8 c739 d94a 29ba
00000130: 9fae 353b 288f be3c 91be b73c 612d 473c
00000140: 1a8f 113d 8afc 213d bb9c 0b3d 6b47 c53b
00000150: f1eb d53c dbfc be3b a914 d83c cf56 1f3d
00000160: 4c41 9a3a 627f 903b 20ef 6bba c699 e03c
00000170: 7877 0a3d 59d6 233c 1ddf 0f3c 9a5f 11ba
00000180: 1513 b33b 4ebb 383d 1f4f eb3b 9539 bc3b
00000190: ceeb eab9 a24f 8b3c dbca d93c 74b6 683a
000001a0: 4be6 543d a13d 213b e604 603a 5ff0 b7ba
000001b0: f7cc 2c3b 30c3 d23c 6172 a33c 857e d43c
000001c0: 4e7a f53c d85a ef3c 4e2c 263d a210 aa3b
000001d0: 4780 083d d9c8 bf3b 3148 073d abd5 d53c
000001e0: ae68 b93a 5997 b53b 1cd9 50ba 4649 223c
000001f0: 1258 0f3d 46e4 ec3c 321b 243c 3032 57ba
00000200: 12de db3b 41e4 fc3c be5d b53b b251 fa3b
00000210: 295e 91ba 26fa 093d 2bae ab3c 3aa6 fa38
00000220: 1b3e ff3c eb09 313b 6d51 563a 9ae6 51ba
00000230: f9f6 063b 8827 c73c f590 b53c c4fe b53c
00000240: 1c72 4b3d 9e31 0e3c 958f 1a3d 4622 c83b
00000250: 1630 f33c 373d 983b 2f2a 193d a4e3 eb3c
00000260: 2747 9f3a 6886 ba3b 58d1 6aba 5e1b f83c
00000270: 68e6 ed3c 849c fd3c 4a58 313c 9367 4bba
00000280: badc ef3b 416d c33c 0107 c53b d156 ce3b
00000290: 1622 89ba b64a 243d 2ce7 b03c 70ae ca38
000002a0: 4839 0a3d b2d8 623b 233a a7b9 6c25 d1b9
000002b0: a617 e53a 500b ae3c 719b b33c 8bce 623c
000002c0: a750 fa3c 8a5c 583c e664 093d 0cf5 c23b
000002d0: 35e7 993c 1da6 dd3b bf8a 9f3c ca66 873c
000002e0: 6223 163a 3ad3 c53b b4fa 19ba 83d4 e03c
000002f0: 4aa1 d63c 5229 a93c 5429 1a3c c4fc 28ba
00000300: fa04 c53b 3e17 bb3c 6d7a c43b 8872 243c
00000310: 2fd1 8dba 40a7 cf3c 6f0f 9b3c c294 8339
00000320: cdbf e73c f16c 653b 9622 603a 7b0c 9637
00000330: 187f 243a 29ea 603c 8a78 a53c dedb c83b
00000340: d129 b83c 8fd0 a03c 7141 b83c 629c 053c
00000350: 5557 a13c 80f7 083c a43a a33c edc0 e63c
00000360: c9b8 923a a00a b23b 9e26 62b9 79a3 bd3c
00000370: 2f42 ad3c dde1 f73b fecd 223c e350 88ba
00000380: f41b de3b 84d8 323d d5c5 f23b 3c41 f23b
00000390: ff88 2abb 9f02 523d aae2 bc3c f208 25b7
000003a0: d274 323d 45cb 283b 1bae c039 2498 26ba
000003b0: aa6b 1c3b 9de0 8a3c c382 d63c d82f f13c
000003c0: 600b 253d 67b2 103d 6f80 0a3d 5e10 ca3b
000003d0: 1f7d 073d c235 c83b db9c 923c c4fe 343d
000003e0: 10d5 403a ba57 b83b e7af 71ba 86f3 523d
000003f0: f790 0b3d d4e4 ab3c 40ca 1c3c 2242 a9ba

feature_extractor.3.bias f4 [16]
0.037377413 0.038988914 0.034032185 0.036673266 0.035251882 0.034407556 0.028109115 0.03897889
0.0350845 0.036743715 0.041251246 0.039166737 0.038814828 0.0390422 0.039158113 0.032080565
00000000: 0f19 193d d7b2 1f3d 5565 0b3d b536 163d
00000010: 4764 103d f0ee 0c3d 1645 e63c 54a8 1f3d
00000020: c4b4 0f3d 9480 163d 11f7 283d 4d6d 203d
00000030: 4cfc 1e3d b7ea 1f3d 4264 203d e966 033d

output_layer.weight f4 [8, 16]
0.028335482 0.030628966 0.023322655 0.02738538 0.024629721 0.019448627 0.012313775 0.029814903
0.020035181 0.027015967 -0.0019499686 0.02912844 0.029219765 0.028016476 0.029649237 -0.0013961263
0.029958813 0.029596156 0.023691813 0.027639316 0.026833324 0.019604197 0.012533045 0.030641813
0.02093084 0.030124845 -0.0016461569 0.031097138 0.02987982 0.030933985 0.0285873 -0.0010751563
-0.08050964 -0.08030696 -0.07154901 -0.076026976 -0.07519928 -0.07171816 -0.06292572 -0.08024085
-0.07093343 -0.08058702 -0.05161079 -0.081087455 -0.078985214 -0.0806696 -0.0797062 -0.039675344
0.003418963 0.0049009346 0.0010516468 0.002744338 0.0024427334 -0.0011388389 -0.0041761515 0.005718081
-0.0012009173 0.0037875948 -0.005192012 0.005238201 0.0043180934 0.0037692168 0.003740211 -0.0045450996
-0.010698089 -0.013332995 0.0003820541 -0.0067682886 -0.004415592 0.001240132 0.0012637179 -0.014835737
0.001572675 -0.010483356 0.0019171875 -0.011505156 -0.010481594 -0.01097471 -0.010089336 0.0013780714
-0.0096180355 -0.013248191 0.0011552562 -0.006276963 -0.0035797392 0.001969015 0.002021746 -0.0132344505
0.0023744039 -0.009917795 0.0029688822 -0.012881909 -0.010255663 -0.009999416 -0.009024758 0.0022420778
-0.08394049 -0.08220892 -0.07713581 -0.08186008 -0.07981424 -0.076071 -0.06818164 -0.08282052
-0.07673497 -0.0826112 -0.053277675 -0.08358714 -0.08225488 -0.08284721 -0.08341184 -0.042013258
-0.0037412401 -0.0039965175 -0.0032598702 -0.0034327756 -0.0034683621 -0.0028987147 -0.0023541776 -0.0042066835
-0.002891987 -0.0038450004 -0.003261891 -0.004058255 -0.003784318 -0.0037967109 -0.0037945982 -0.0023870626
00000000: d01f e83c 99e9 fa3c 270f bf3c 4e57 e03c
00000010: 45c4 c93c ba52 9f3c b7bf 493c 623e f43c
00000020: d220 a43c 9750 dd3c 1796 ffba c49e ee3c
00000030: 4a5e ef3c cf82 e53c f5e2 f23c 3afe b6ba
00000040: 2f6c f53c a373 f23c 5515 c23c d96b e23c
00000050: 8fd1 db3c fb98 a03c 6757 4d3c 8a04 fb3c
00000060: 2777 ab3c 61c8 f63c dcc3 d7ba 6dbf fe3c
00000070: 86c6 f43c 4569 fd3c ea2f ea3c 42ec 8cba
00000080: 3de2 a4bd fa77 a4bd 4a88 92bd 08b4 9bbd
00000090: 1502 9abd f8e0 92bd 33df 80bd 5155 a4bd
000000a0: 8c45 91bd cf0a a5bd d665 53bd 2e11 a6bd
000000b0: 00c3 a1bd 1a36 a5bd 013d a3bd 9d82 22bd
000000c0: ae10 603b 0598 a03b 69d7 893a 5ada 333b
000000d0: 4416 203b 1845 95ba 19d8 88bb bd5e bb3b
000000e0: 1968 9dba 4c39 783b c121 aabb 37a5 ab3b
000000f0: cb7e 8d3b f704 773b 541e 753b 0fef 94bb
00000100: 0a47 2fbc a272 5abc 6f4e c839 85c8 ddbb
00000110: acb0 90bb ed8b a23a 56a3 a53a 9711 73bc
00000120: 3722 ce3a 62c2 2bbc 234a fb3a 1f80 3cbc
00000130: feba 2bbc 45cf 33bc be4d 25bc 67a0 b43a
00000140: f794 1dbc f10e 59bc f76b 973a fbae cdbb
00000150: 0f9a 6abb 970a 013b 457f 043b 4fd5 58bc
00000160: e39b 1b3b 3f7e 22bc 9491 423b a40e 53bc
00000170: 5e07 28bc 97d4 23bc 94dc 13bc d3ef 123b
00000180: fee8 abbd 265d a8bd 61f9 9dbd 42a6 a7bd
00000190: a675 a3bd 1dcb 9bbd d1a2 8bbd ce9d a9bd
000001a0: 3927 9dbd 1030 a9bd b139 5abd bc2f abbd
000001b0: 3f75 a8bd ccab a9bd d4d3 aabd 1816 2cbd
000001c0: 982f 75bb 38f5 82bb 8ca3 55bb 6bf8 60bb
000001d0: 764d 63bb 5df8 3dbb 8c48 1abb 38d8 89bb
000001e0: 7e87 3dbb 67fc 7bbb 73c5 55bb 1cfb 84bb
000001f0: 5202 78bb 3dd2 78bb cbae 78bb 4470 1cbb

output_layer.bias f4 [8]
0.050969906 0.032082696 4.9271765 0.10456792 0.0023941805 -0.016488349 4.9275846 0.04428502
00000000: d2c5 503d 2569 033d 6eab 9d40 b527 d63d
00000010: afe7 1c3b 9312 87bc c6ae 9d40 3664 353d
