neural_th/thermal_mass_model.pth (torch, 89205 bytes, 10 tensors)

lstm.weight_ih_l0 f4 [256, 6]
0	0x3d264078	0.040588826
1	0x3d3975bb	0.045278292
2	0xbd98de1c	-0.07464239
3	0xbd36e4c0	-0.044651747
4	0x3d26f70c	0.040762946
5	0xbcaac666	-0.020846557
6	0x3cc0c585	0.023531685
7	0xbcc5a33b	-0.024125686
8	0xbd580101	-0.052735332
9	0x3d6d0a52	0.05787117
10	0xbd4242d8	-0.04742703
11	0x3c8b5b19	0.017011212
12	0xbd6a5975	-0.05721422
13	0x3d37c9fc	0.04487036
14	0x3d7899cb	0.060693543
15	0xbb9aad9c	-0.004720403
16	0xbc99af47	-0.018760337
17	0xbd972e0b	-0.07381829
18	0x3c46dc50	0.0121374875
19	0xbc885eb1	-0.016646715
20	0xbd0d2553	-0.034459423
21	0xbd5417b6	-0.051780425
22	0x3d12909b	0.035782438
23	0x3bd86209	0.0066034836
24	0xbd403a99	-0.046930883
25	0xbd1b90c6	-0.037979864
26	0xbd97ae71	-0.07406319
27	0xbcc8d146	-0.024513852
28	0x3ba8c721	0.005150691
29	0x3cee054d	0.029055262
30	0x3c9224c8	0.017839804
31	0x3d83695b	0.06416579
32	0xbd181a71	-0.03713459
33	0xbd71ae67	-0.059004214
34	0x3ce2ed15	0.02770094
35	0x3d02e858	0.03195986
36	0xbc18c15e	-0.009323446
37	0xbd049baf	-0.032375034
38	0xbc0f011b	-0.008728291
39	0x3d8de60f	0.06928646
40	0xbd2bcdad	-0.041944195
41	0xbd13f9e3	-0.036126982
42	0xbd2fc00a	-0.042907752
43	0xbd8150bc	-0.06314227
44	0x3c831a8d	0.016003871
45	0x3d97be89	0.074093886
46	0x3d4fdc44	0.05074717
47	0x3d405265	0.046953578
48	0xbceb8282	-0.028748754
49	0xbcb097c5	-0.021556744
50	0xbd9331a7	-0.07187205
51	0xbd1dd3e2	-0.038532145
52	0xbd579411	-0.05263144
53	0x3c9cfba5	0.019162962
54	0x3d50de5e	0.050993316
55	0x3cf8649d	0.030321414
56	0x3d5eeea1	0.054426793
57	0xbca14df1	-0.019690486
58	0x3d777f21	0.060423974
59	0x3d147203	0.036241543
60	0x3c1fabd1	0.009745554
61	0x3a43513e	0.00074507657
62	0xbcc6487c	-0.024204485
63	0x3d888ecd	0.06667862
64	0x3ba55b62	0.005046294
65	0x3d50d545	0.05098464
66	0xbd88dd17	-0.066827945
67	0xbd396023	-0.0452577
68	0xbd817970	-0.063219905
69	0xbd11034e	-0.035403542
70	0xba66cadb	-0.00088040315
71	0xbd8f53d0	-0.06998408
72	0xbc5eebac	-0.013605993
73	0xbc78b80d	-0.0151806
74	0x3d81fb1b	0.06346723
75	0xbbff8306	-0.0077976016
76	0x3d331105	0.043717403
77	0x3d3baf2f	0.045821365
78	0x3cca9a01	0.024731638
79	0xbd11eb94	-0.035625055
80	0xbd2dfea0	-0.042479157
81	0x3cf93cc4	0.030424483
82	0xbd61fdf9	-0.055173848
83	0xbd0a9aeb	-0.033839148
84	0x3d8e2d10	0.06942189
85	0xbcd201d4	-0.025635637
86	0xbc9bb46e	-0.019006934
87	0xbc3ceaae	-0.011530561
88	0x3cbffed3	0.02343694
89	0x3c8e141b	0.017343571
90	0xbd529998	-0.05141601
91	0x3c608023	0.013702425
92	0x3d090577	0.033452477
93	0xbd2d2499	-0.04227123
94	0xbd1c50fe	-0.038163178
95	0xbd4f1206	-0.050554298
96	0xbc4413aa	-0.011967579
97	0xbd437269	-0.047716532
98	0xbd8b8204	-0.06811908
99	0x3c83b6f8	0.016078457
100	0xbcc53c75	-0.02407668
101	0x3ca548fa	0.0201764
102	0xbd29a28f	-0.041414794
103	0xbd1906d4	-0.037360027
104	0xbd1688fc	-0.036751732
105	0xbd5bbec8	-0.05364874
106	0xbd298daf	-0.041394886
107	0x3c7c10ce	0.015384866
108	0xbd3961ad	-0.045259167
109	0xb9dacf18	-0.00041734497
110	0x3d5a6f85	0.05332901
111	0x3d99c225	0.07507733
112	0xbb805d61	-0.0039173816
113	0xbd8bc059	-0.06823797
114	0x3c3be7d4	0.011468846
115	0xbc145436	-0.009053281
116	0xbc19753a	-0.009366328
117	0x3cb97006	0.022636425
118	0xbd0f5b51	-0.034999195
119	0xbd02623d	-0.03183197
120	0x3c28b345	0.010296647
121	0xbcc88fa7	-0.024482561
122	0x3d165223	0.036699425
123	0x3d0e5ef2	0.034758516
124	0x3c8f8e38	0.01752387
125	0x3cd259e7	0.025677634
126	0x3d3381af	0.043824848
127	0x3b447f99	0.002998328
128	0xbd44b434	-0.048023418
129	0x3cd7c1af	0.026337473
130	0xbd986717	-0.07441538
131	0x3d343745	0.04399802
132	0xbc6d7e42	-0.014495434
133	0x3d859e70	0.0652436
134	0x3c9a6ff6	0.018852215
135	0x3c24d6d2	0.010060983
136	0xbd843a09	-0.06456382
137	0xbbcbb1e4	-0.0062162746
138	0xbcd153be	-0.025552627
139	0xbcc67cce	-0.024229433
140	0xbd15bd61	-0.03655756
141	0xbca932a6	-0.020654034
142	0x3d9867f5	0.07441703
143	0x3d4fdea3	0.050749432
144	0xbc1c9e15	-0.009559174
145	0x3c5e9d52	0.013587313
146	0xbd5d337d	-0.05400418
147	0xbd14251c	-0.036168203
148	0xbbc21fb5	-0.00592419
149	0xbd55818f	-0.05212551
150	0x3cb346c0	0.021884322
151	0x3cfbafbf	0.03072345
152	0x3cfb22ef	0.030656306
153	0xbd98fb05	-0.07469753
154	0xbccd4329	-0.025056439
155	0xbd5c8da6	-0.053846024
156	0x3d38f586	0.045156024
157	0xbc0a4dc4	-0.008441392
158	0x3d098023	0.033569466
159	0x3ccd2fe7	0.025047256
160	0x3cced2b5	0.025246957
161	0xbd288e34	-0.04115124
162	0xbbd7d259	-0.0065863547
163	0xbd0db89b	-0.03459988
164	0x3d7b1ac3	0.06130482
165	0xbce22d98	-0.027609631
166	0x3d08875f	0.033332225
167	0xbd8ec47c	-0.0697107
168	0x3d8151b3	0.06314411
169	0x3c024bd0	0.007952645
170	0xbcafd428	-0.021463469
171	0x3d832fe2	0.06405617
172	0x3ca61896	0.020275395
173	0x3bdc9952	0.0067321444
174	0xbd1c4753	-0.038153958
175	0xbd91f62c	-0.07127032
176	0x3d8b5135	0.068025984
177	0x3c9a18df	0.018810688
178	0xbd3d4c75	-0.046215493
179	0x3d57ac8e	0.052654795
180	0x3bed9b50	0.0072511807
181	0xbd503cf4	-0.05083938
182	0x3d92f552	0.071756974
183	0xbce1d2b8	-0.027566299
184	0xbd02dfcc	-0.03195171
185	0x3d1807c1	0.03711677
186	0xbd78f863	-0.060783755
187	0xbd65d191	-0.05610806
188	0xbbbeac65	-0.005818891
189	0xbc14c261	-0.009079547
190	0xbc49b592	-0.012311356
191	0x3ca30e9e	0.019904431
192	0xbd85e146	-0.06537108
193	0x3c8f76cd	0.017512703
194	0xbd7431a1	-0.059617642
195	0xbd29b17e	-0.041429035
196	0x3d67984e	0.056541733
197	0xbd0efee9	-0.03491107
198	0x3d13da55	0.03609689
199	0x3d7dcc0d	0.061962176
200	0x3d986253	0.07440629
201	0x3cd18dc2	0.02558029
202	0x3cb3f3af	0.021966783
203	0x3ae97643	0.0017811734
204	0xbd3ed93e	-0.046593897
205	0xbc70cd40	-0.014697373
206	0xbd4618e1	-0.04836357
207	0x3d2bab27	0.04191127
208	0x3d9440d9	0.07238931
209	0xbd1170c9	-0.03550795
210	0xbc3f6753	-0.011682349
211	0x3b180c0a	0.0023200535
212	0xbd5f0d70	-0.054456174
213	0x3ca9696a	0.020680148
214	0x3ccdf389	0.02514054
215	0xbc99d198	-0.0187767
216	0xbd563abe	-0.052302115
217	0xbd4f8ed7	-0.050673332
218	0x3c69e993	0.01427688
219	0x3d322dff	0.043500897
220	0x3d4ded8f	0.05027538
221	0x3c61d392	0.013783352
222	0xbcf2f88e	-0.029659536
223	0xbc8f8764	-0.017520614
224	0x3c8fc9c0	0.017552257
225	0xbb9eeb2c	-0.004849812
226	0x3c72bff5	0.014816274
227	0xbc48b009	-0.012249001
228	0x3ce0c651	0.027438315
229	0x3b6df765	0.0036310789
230	0x3d5861f3	0.052827787
231	0xbd863e24	-0.06554821
232	0xbd94de27	-0.07268935
233	0x3d1f1cb5	0.038845737
234	0x3983f6e8	0.00025170227
235	0xbd0111ce	-0.03151112
236	0x3d76f27a	0.060289837
237	0x3d223584	0.039601818
238	0x3d8ac622	0.06776072
239	0xbc36300d	-0.011119855
240	0xbd223dcd	-0.03960972
241	0xbc6bea21	-0.014399082
242	0x3ca546b5	0.020175317
243	0xbcbfe46b	-0.023424348
244	0x3d335202	0.04377938
245	0xbd7c3e8c	-0.061583087
246	0xbd5973bf	-0.0530889
247	0x3d8148a4	0.06312683
248	0x3d3ec2cd	0.046572495
249	0x3cce0ed5	0.025153557
250	0xba4c3f89	-0.000779145
251	0xbc9a2648	-0.018817082
252	0x3b302cb9	0.0026882126
253	0xbd9a4844	-0.07533315
254	0xbd89e3d1	-0.06732906
255	0xbc49bf4c	-0.012313675

lstm.weight_hh_l0 f4 [256, 64]
0	0xbd02e960	-0.031960845
1	0x3cafd1bf	0.02146232
2	0xbce65cf4	-0.028120495
3	0xbc50ae2a	-0.012736836
4	0x3d5657e0	0.052329898
5	0xbc8f5847	-0.017498149
6	0x3b50d548	0.0031865407
7	0x3c239db6	0.009986332
8	0xbc1008fd	-0.0087912055
9	0x3d0a2d05	0.03373434
10	0x3cf31620	0.029673636
11	0xbd0f2475	-0.034946878
12	0xbd17ceb8	-0.037062377
13	0xbc86fbf7	-0.016477568
14	0xbbb423f0	-0.005497448
15	0x3c7409e2	0.014894934
16	0xbd0b4459	-0.03400073
17	0xbcabe77a	-0.0209844
18	0x3d384e3e	0.044996493
19	0x3cd27f61	0.025695505
20	0xbc37d971	-0.011221276
21	0xbd0b6b9a	-0.034038164
22	0xbc493977	-0.012281767
23	0xbb030d68	-0.0019997004
24	0x3d6c923c	0.057756647
25	0x3b8ae7c1	0.004239053
26	0xbce08821	-0.027408661
27	0xbbab6e42	-0.0052316496
28	0xbcde09ae	-0.027104225
29	0xbd9d85f2	-0.07691564
30	0x3c9d9938	0.0192381
31	0x3d37c7f1	0.044868413
32	0x3cf00c83	0.029302841
33	0xbcd15ac6	-0.02555598
34	0x3cca1206	0.024666797
35	0x3c7a5475	0.015278925
36	0xbc83139c	-0.016000561
37	0x3c9e7e03	0.019347196
38	0xbd2359a2	-0.039880402
39	0xbd7a1dc0	-0.061063528
40	0xbcc760e4	-0.024338193
41	0x3d5485ef	0.05188554
42	0xbb5e122b	-0.003388534
43	0xbbcc301d	-0.0062313215
44	0x3d0c575c	0.034263
45	0x3c835284	0.016030557
46	0x3cb4f621	0.02209002
47	0xbd0a4c74	-0.033764318
48	0x3d0a47bd	0.03375982
49	0xbd1b5529	-0.037923012
50	0xbc146529	-0.009057322
51	0x3d05fe8d	0.03271346
52	0xbc212abe	-0.009836851
53	0x3cd98e5a	0.026557136
54	0x3d10ba70	0.03533405
55	0xbd33b8f6	-0.043877564
56	0xbc56b7ce	-0.013105346
57	0xbbd218dd	-0.0064116553
58	0x3d800612	0.06251158
59	0xbc85a40d	-0.016313577
60	0x3d43cc12	0.04780204
61	0x3c96b246	0.018395554
62	0x3cbe5cfd	0.0232377
63	0xbbe939ab	-0.0071174703
64	0x3c1cda2a	0.009573499
65	0x3b4c5600	0.003117919
66	0x3c788475	0.015168299
67	0x3d9ad0d1	0.0755936
68	0xbcb511ff	-0.022103308
69	0xbd06f5e4	-0.032949343
70	0xbbc2860f	-0.005936391
71	0x3b55171b	0.0032514993
72	0x3d37f392	0.04491002
73	0x3d8c2ab9	0.06844086
74	0xbd119827	-0.035545494
75	0xbd810c3c	-0.06301162
76	0x3cd5a970	0.02608177
77	0xbc947c45	-0.018125663
78	0xbcddb998	-0.027066037
79	0xbd81d9ae	-0.06340347
80	0xbcabd86c	-0.020977221
81	0xbccdb3b0	-0.025110096
82	0xbd276794	-0.040870264
83	0xbc3b7220	-0.011440784
84	0x3c96e0b3	0.018417692
85	0x3cec227b	0.028825035
86	0xbd9a3d63	-0.0753124
87	0xbcaa0351	-0.020753535
88	0x3c8bfd71	0.017088624
89	0x3d1fcce5	0.039013762
90	0x3d14553e	0.036214106
91	0xbd7edd67	-0.062222864
92	0x3c82dcee	0.015974488
93	0xbcde4829	-0.027134018
94	0xbbfe603c	-0.007762937
95	0x3ccfbb06	0.025357734
96	0x3cdaf757	0.026729269
97	0x3b844aee	0.0040372526
98	0xbc880145	-0.016602168
99	0x3d029184	0.031877056
100	0x3d4bef27	0.04978862
101	0x3cf22684	0.029559381
102	0xbd03fc9a	-0.03222332
103	0xbd5819bd	-0.05275892
104	0xbcd46b84	-0.025930174
105	0x3c4dbdfe	0.012557505
106	0xbc89291c	-0.016743235
107	0xbca925bf	-0.020647882
108	0xbd476550	-0.048680604
109	0x3b9663ec	0.0045895483
110	0xbda96657	-0.08271473
111	0x3c066001	0.0082016
112	0x3c5841a6	0.013199246
113	0x3ccfff05	0.025390157
114	0x3c576933	0.01314764
115	0xbbb09618	-0.0053889863
116	0x3ca88ef4	0.020575978
117	0xbbe74511	-0.007057794
118	0x3cf99c08	0.03046991
119	0xbd5fdd43	-0.05465437
120	0x3cdfce94	0.027320184
121	0x3cde2640	0.027117848
122	0x3d417de7	0.04723921
123	0x3c823dac	0.015898548
124	0x3d8bac0e	0.06819926
125	0x3d164dc6	0.036695264
126	0xbd14aac7	-0.03629568
127	0x3db07efe	0.08617972
128	0xbd144b13	-0.03620441
129	0xbcd15a4b	-0.02555575
130	0x3cec2040	0.028823972
131	0xbc8b9d56	-0.017042797
132	0xbcdd5b5e	-0.027021106
133	0x3b32cc16	0.002728229
134	0x3cd4b251	0.025963934
135	0xbd393500	-0.04521656
136	0x3c29c70a	0.010362396
137	0xbd30b4e5	-0.043141264
138	0xbc8d925f	-0.01728171
139	0x3c2705aa	0.0101942215
140	0xbc2fcc36	-0.01072984
141	0x3d42c14f	0.047547635
142	0xbdbc7563	-0.09202077
143	0xbc716422	-0.014733346
144	0xbd5048f8	-0.05085084
145	0x3cf22139	0.029556857
146	0x3b9a881f	0.004715934
147	0xbcfa3f72	-0.030547831
148	0x3d230e83	0.03980876
149	0x3d65dc94	0.056118563
150	0x3c8b5655	0.01700894
151	0x3c997ddd	0.018736774
152	0x3d6dae3e	0.0580275
153	0xbd09da5b	-0.033655506
154	0x3c1530af	0.009105845
155	0xbc8d0c2f	-0.017217724
156	0xbd62e169	-0.05539075
157	0xba0f7708	-0.0005472754
158	0x3becba22	0.007224337
159	0x3b0b367d	0.0021242194
160	0x3bf46756	0.0074586077
161	0xbbbd258c	-0.005772298
162	0xbc43e1e0	-0.011955708
163	0xbcb22c31	-0.021749588
164	0x3acefbf4	0.0015791641
165	0x3d26f3a2	0.04075969
166	0x3c9587d0	0.018253237
167	0xbca2a58c	-0.01985433
168	0xbbb8c6fe	-0.005638956
169	0x3d333842	0.043754824
170	0xbca3ffa8	-0.020019367
171	0xbcaf8db0	-0.021429867
172	0x3d130bf5	0.035900075
173	0xbd4a8008	-0.049438506
174	0xbd3def6a	-0.0463709
175	0x3d49e256	0.049288116
176	0xbc9d48d9	-0.019199776
177	0xbcc0efb2	-0.023551796
178	0x3b83506f	0.004007391
179	0xbcb8d147	-0.022560729
180	0xbcfaacb5	-0.030599931
181	0x3d5cdff3	0.053924512
182	0x3c360341	0.011109174
183	0x3bdc66a9	0.006726105
184	0xbd020c1d	-0.031749833
185	0xbc197565	-0.009366368
186	0x3c26035a	0.010132635
187	0xbd50ec67	-0.0510067
188	0xbd1bc94e	-0.038033776
189	0xbd26bdc7	-0.04070833
190	0xbda69b66	-0.08135109
191	0xbd6df9c9	-0.05809954
192	0x388eed3b	6.815275e-05
193	0xbd01c270	-0.03167957
194	0x3d386775	0.04502054
195	0x3cc30460	0.023805797
196	0xbd4bdaba	-0.04976914
197	0x3b8172a2	0.003950433
198	0x3c0b764b	0.00851209
199	0x3d7cb188	0.061692744
200	0xbcd763b2	-0.026292656
201	0xbb9d742e	-0.0048051095
202	0xbd845c94	-0.064629704
203	0x3b3cdd4a	0.0028818422
204	0x3b4c92a5	0.0031215337
205	0x3b85c1a9	0.004081924
206	0x3c9f529b	0.019448569
207	0x3bf61a9e	0.0075104972
208	0x3d752e20	0.05985844
209	0xbc1d4b3e	-0.009600459
210	0x3bbb7f6b	0.0057219765
211	0x3d273c08	0.040828735
212	0x3d8095c7	0.06278568
213	0x3cd983ae	0.026552048
214	0xbd73e104	-0.059540763
215	0x3bf05704	0.007334592
216	0xbc6093b2	-0.013707088
217	0xb9e3d890	-0.00043458166
218	0x3cfbaeb7	0.030722959
219	0x3d48071c	0.048834905
220	0xbb8f7e65	-0.004379081
221	0xbcf452ed	-0.029824698
222	0xbd23126d	-0.039812494
223	0x3ccc6cac	0.024954163
224	0xbcae76c1	-0.02129686
225	0xbcbb5837	-0.022869213
226	0x3d22aeb8	0.039717406
227	0xbb7bee0b	-0.0038441445
228	0x3c8f2888	0.017475381
229	0xbd3e3c5a	-0.046444274
230	0x3d19bf86	0.037536167
231	0xbc89a5ba	-0.016802657
232	0x3bb5c1e1	0.005546794
233	0x3c3696cc	0.011144351
234	0xbd0ab801	-0.033866886
235	0xbb9e253e	-0.004826217
236	0x3d3d6127	0.04623523
237	0xbdc3da1a	-0.09563084
238	0xbd3d16a5	-0.046164174
239	0xbbc8a7bc	-0.006123511
240	0xbc3f7c9f	-0.011687427
241	0x3cbaac59	0.02278726
242	0xbbc4500c	-0.0059909876
243	0x3cb19e6e	0.02168199
244	0x3c008b89	0.007845768
245	0xbd87b97b	-0.066271745
246	0xbc1f9b87	-0.00974167
247	0x3c60bceb	0.013716917
248	0xbbfc3b8e	-0.007697529
249	0x3d582903	0.052773487
250	0xbd1e81e8	-0.038698107
251	0xbd17ab5d	-0.03702866
252	0xbd093335	-0.0334961
253	0xbc2a16cc	-0.010381412
254	0x3d0646f4	0.03278251
255	0xbd1708f2	-0.036873765

lstm.bias_ih_l0 f4 [256]
0	0x00000000	0.0
1	0x00000000	0.0
2	0x00000000	0.0
3	0x00000000	0.0
4	0x00000000	0.0
5	0x00000000	0.0
6	0x00000000	0.0
7	0x00000000	0.0
8	0x00000000	0.0
9	0x00000000	0.0
10	0x00000000	0.0
11	0x00000000	0.0
12	0x00000000	0.0
13	0x00000000	0.0
14	0x00000000	0.0
15	0x00000000	0.0
16	0x00000000	0.0
17	0x00000000	0.0
18	0x00000000	0.0
19	0x00000000	0.0
20	0x00000000	0.0
21	0x00000000	0.0
22	0x00000000	0.0
23	0x00000000	0.0
24	0x00000000	0.0
25	0x00000000	0.0
26	0x00000000	0.0
27	0x00000000	0.0
28	0x00000000	0.0
29	0x00000000	0.0
30	0x00000000	0.0
31	0x00000000	0.0
32	0x00000000	0.0
33	0x00000000	0.0
34	0x00000000	0.0
35	0x00000000	0.0
36	0x00000000	0.0
37	0x00000000	0.0
38	0x00000000	0.0
39	0x00000000	0.0
40	0x00000000	0.0
41	0x00000000	0.0
42	0x00000000	0.0
43	0x00000000	0.0
44	0x00000000	0.0
45	0x00000000	0.0
46	0x00000000	0.0
47	0x00000000	0.0
48	0x00000000	0.0
49	0x00000000	0.0
50	0x00000000	0.0
51	0x00000000	0.0
52	0x00000000	0.0
53	0x00000000	0.0
54	0x00000000	0.0
55	0x00000000	0.0
56	0x00000000	0.0
57	0x00000000	0.0
58	0x00000000	0.0
59	0x00000000	0.0
60	0x00000000	0.0
61	0x00000000	0.0
62	0x00000000	0.0
63	0x00000000	0.0
64	0x00000000	0.0
65	0x00000000	0.0
66	0x00000000	0.0
67	0x00000000	0.0
68	0x00000000	0.0
69	0x00000000	0.0
70	0x00000000	0.0
71	0x00000000	0.0
72	0x00000000	0.0
73	0x00000000	0.0
74	0x00000000	0.0
75	0x00000000	0.0
76	0x00000000	0.0
77	0x00000000	0.0
78	0x00000000	0.0
79	0x00000000	0.0
80	0x00000000	0.0
81	0x00000000	0.0
82	0x00000000	0.0
83	0x00000000	0.0
84	0x00000000	0.0
85	0x00000000	0.0
86	0x00000000	0.0
87	0x00000000	0.0
88	0x00000000	0.0
89	0x00000000	0.0
90	0x00000000	0.0
91	0x00000000	0.0
92	0x00000000	0.0
93	0x00000000	0.0
94	0x00000000	0.0
95	0x00000000	0.0
96	0x00000000	0.0
97	0x00000000	0.0
98	0x00000000	0.0
99	0x00000000	0.0
100	0x00000000	0.0
101	0x00000000	0.0
102	0x00000000	0.0
103	0x00000000	0.0
104	0x00000000	0.0
105	0x00000000	0.0
106	0x00000000	0.0
107	0x00000000	0.0
108	0x00000000	0.0
109	0x00000000	0.0
110	0x00000000	0.0
111	0x00000000	0.0
112	0x00000000	0.0
113	0x00000000	0.0
114	0x00000000	0.0
115	0x00000000	0.0
116	0x00000000	0.0
117	0x00000000	0.0
118	0x00000000	0.0
119	0x00000000	0.0
120	0x00000000	0.0
121	0x00000000	0.0
122	0x00000000	0.0
123	0x00000000	0.0
124	0x00000000	0.0
125	0x00000000	0.0
126	0x00000000	0.0
127	0x00000000	0.0
128	0x00000000	0.0
129	0x00000000	0.0
130	0x00000000	0.0
131	0x00000000	0.0
132	0x00000000	0.0
133	0x00000000	0.0
134	0x00000000	0.0
135	0x00000000	0.0
136	0x00000000	0.0
137	0x00000000	0.0
138	0x00000000	0.0
139	0x00000000	0.0
140	0x00000000	0.0
141	0x00000000	0.0
142	0x00000000	0.0
143	0x00000000	0.0
144	0x00000000	0.0
145	0x00000000	0.0
146	0x00000000	0.0
147	0x00000000	0.0
148	0x00000000	0.0
149	0x00000000	0.0
150	0x00000000	0.0
151	0x00000000	0.0
152	0x00000000	0.0
153	0x00000000	0.0
154	0x00000000	0.0
155	0x00000000	0.0
156	0x00000000	0.0
157	0x00000000	0.0
158	0x00000000	0.0
159	0x00000000	0.0
160	0x00000000	0.0
161	0x00000000	0.0
162	0x00000000	0.0
163	0x00000000	0.0
164	0x00000000	0.0
165	0x00000000	0.0
166	0x00000000	0.0
167	0x00000000	0.0
168	0x00000000	0.0
169	0x00000000	0.0
170	0x00000000	0.0
171	0x00000000	0.0
172	0x00000000	0.0
173	0x00000000	0.0
174	0x00000000	0.0
175	0x00000000	0.0
176	0x00000000	0.0
177	0x00000000	0.0
178	0x00000000	0.0
179	0x00000000	0.0
180	0x00000000	0.0
181	0x00000000	0.0
182	0x00000000	0.0
183	0x00000000	0.0
184	0x00000000	0.0
185	0x00000000	0.0
186	0x00000000	0.0
187	0x00000000	0.0
188	0x00000000	0.0
189	0x00000000	0.0
190	0x00000000	0.0
191	0x00000000	0.0
192	0x00000000	0.0
193	0x00000000	0.0
194	0x00000000	0.0
195	0x00000000	0.0
196	0x00000000	0.0
197	0x00000000	0.0
198	0x00000000	0.0
199	0x00000000	0.0
200	0x00000000	0.0
201	0x00000000	0.0
202	0x00000000	0.0
203	0x00000000	0.0
204	0x00000000	0.0
205	0x00000000	0.0
206	0x00000000	0.0
207	0x00000000	0.0
208	0x00000000	0.0
209	0x00000000	0.0
210	0x00000000	0.0
211	0x00000000	0.0
212	0x00000000	0.0
213	0x00000000	0.0
214	0x00000000	0.0
215	0x00000000	0.0
216	0x00000000	0.0
217	0x00000000	0.0
218	0x00000000	0.0
219	0x00000000	0.0
220	0x00000000	0.0
221	0x00000000	0.0
222	0x00000000	0.0
223	0x00000000	0.0
224	0x00000000	0.0
225	0x00000000	0.0
226	0x00000000	0.0
227	0x00000000	0.0
228	0x00000000	0.0
229	0x00000000	0.0
230	0x00000000	0.0
231	0x00000000	0.0
232	0x00000000	0.0
233	0x00000000	0.0
234	0x00000000	0.0
235	0x00000000	0.0
236	0x00000000	0.0
237	0x00000000	0.0
238	0x00000000	0.0
239	0x00000000	0.0
240	0x00000000	0.0
241	0x00000000	0.0
242	0x00000000	0.0
243	0x00000000	0.0
244	0x00000000	0.0
245	0x00000000	0.0
246	0x00000000	0.0
247	0x00000000	0.0
248	0x00000000	0.0
249	0x00000000	0.0
250	0x00000000	0.0
251	0x00000000	0.0
252	0x00000000	0.0
253	0x00000000	0.0
254	0x00000000	0.0
255	0x00000000	0.0

lstm.bias_hh_l0 f4 [256]
0	0x00000000	0.0
1	0x00000000	0.0
2	0x00000000	0.0
3	0x00000000	0.0
4	0x00000000	0.0
5	0x00000000	0.0
6	0x00000000	0.0
7	0x00000000	0.0
8	0x00000000	0.0
9	0x00000000	0.0
10	0x00000000	0.0
11	0x00000000	0.0
12	0x00000000	0.0
13	0x00000000	0.0
14	0x00000000	0.0
15	0x00000000	0.0
16	0x00000000	0.0
17	0x00000000	0.0
18	0x00000000	0.0
19	0x00000000	0.0
20	0x00000000	0.0
21	0x00000000	0.0
22	0x00000000	0.0
23	0x00000000	0.0
24	0x00000000	0.0
25	0x00000000	0.0
26	0x00000000	0.0
27	0x00000000	0.0
28	0x00000000	0.0
29	0x00000000	0.0
30	0x00000000	0.0
31	0x00000000	0.0
32	0x00000000	0.0
33	0x00000000	0.0
34	0x00000000	0.0
35	0x00000000	0.0
36	0x00000000	0.0
37	0x00000000	0.0
38	0x00000000	0.0
39	0x00000000	0.0
40	0x00000000	0.0
41	0x00000000	0.0
42	0x00000000	0.0
43	0x00000000	0.0
44	0x00000000	0.0
45	0x00000000	0.0
46	0x00000000	0.0
47	0x00000000	0.0
48	0x00000000	0.0
49	0x00000000	0.0
50	0x00000000	0.0
51	0x00000000	0.0
52	0x00000000	0.0
53	0x00000000	0.0
54	0x00000000	0.0
55	0x00000000	0.0
56	0x00000000	0.0
57	0x00000000	0.0
58	0x00000000	0.0
59	0x00000000	0.0
60	0x00000000	0.0
61	0x00000000	0.0
62	0x00000000	0.0
63	0x00000000	0.0
64	0x00000000	0.0
65	0x00000000	0.0
66	0x00000000	0.0
67	0x00000000	0.0
68	0x00000000	0.0
69	0x00000000	0.0
70	0x00000000	0.0
71	0x00000000	0.0
72	0x00000000	0.0
73	0x00000000	0.0
74	0x00000000	0.0
75	0x00000000	0.0
76	0x00000000	0.0
77	0x00000000	0.0
78	0x00000000	0.0
79	0x00000000	0.0
80	0x00000000	0.0
81	0x00000000	0.0
82	0x00000000	0.0
83	0x00000000	0.0
84	0x00000000	0.0
85	0x00000000	0.0
86	0x00000000	0.0
87	0x00000000	0.0
88	0x00000000	0.0
89	0x00000000	0.0
90	0x00000000	0.0
91	0x00000000	0.0
92	0x00000000	0.0
93	0x00000000	0.0
94	0x00000000	0.0
95	0x00000000	0.0
96	0x00000000	0.0
97	0x00000000	0.0
98	0x00000000	0.0
99	0x00000000	0.0
100	0x00000000	0.0
101	0x00000000	0.0
102	0x00000000	0.0
103	0x00000000	0.0
104	0x00000000	0.0
105	0x00000000	0.0
106	0x00000000	0.0
107	0x00000000	0.0
108	0x00000000	0.0
109	0x00000000	0.0
110	0x00000000	0.0
111	0x00000000	0.0
112	0x00000000	0.0
113	0x00000000	0.0
114	0x00000000	0.0
115	0x00000000	0.0
116	0x00000000	0.0
117	0x00000000	0.0
118	0x00000000	0.0
119	0x00000000	0.0
120	0x00000000	0.0
121	0x00000000	0.0
122	0x00000000	0.0
123	0x00000000	0.0
124	0x00000000	0.0
125	0x00000000	0.0
126	0x00000000	0.0
127	0x00000000	0.0
128	0x00000000	0.0
129	0x00000000	0.0
130	0x00000000	0.0
131	0x00000000	0.0
132	0x00000000	0.0
133	0x00000000	0.0
134	0x00000000	0.0
135	0x00000000	0.0
136	0x00000000	0.0
137	0x00000000	0.0
138	0x00000000	0.0
139	0x00000000	0.0
140	0x00000000	0.0
141	0x00000000	0.0
142	0x00000000	0.0
143	0x00000000	0.0
144	0x00000000	0.0
145	0x00000000	0.0
146	0x00000000	0.0
147	0x00000000	0.0
148	0x00000000	0.0
149	0x00000000	0.0
150	0x00000000	0.0
151	0x00000000	0.0
152	0x00000000	0.0
153	0x00000000	0.0
154	0x00000000	0.0
155	0x00000000	0.0
156	0x00000000	0.0
157	0x00000000	0.0
158	0x00000000	0.0
159	0x00000000	0.0
160	0x00000000	0.0
161	0x00000000	0.0
162	0x00000000	0.0
163	0x00000000	0.0
164	0x00000000	0.0
165	0x00000000	0.0
166	0x00000000	0.0
167	0x00000000	0.0
168	0x00000000	0.0
169	0x00000000	0.0
170	0x00000000	0.0
171	0x00000000	0.0
172	0x00000000	0.0
173	0x00000000	0.0
174	0x00000000	0.0
175	0x00000000	0.0
176	0x00000000	0.0
177	0x00000000	0.0
178	0x00000000	0.0
179	0x00000000	0.0
180	0x00000000	0.0
181	0x00000000	0.0
182	0x00000000	0.0
183	0x00000000	0.0
184	0x00000000	0.0
185	0x00000000	0.0
186	0x00000000	0.0
187	0x00000000	0.0
188	0x00000000	0.0
189	0x00000000	0.0
190	0x00000000	0.0
191	0x00000000	0.0
192	0x00000000	0.0
193	0x00000000	0.0
194	0x00000000	0.0
195	0x00000000	0.0
196	0x00000000	0.0
197	0x00000000	0.0
198	0x00000000	0.0
199	0x00000000	0.0
200	0x00000000	0.0
201	0x00000000	0.0
202	0x00000000	0.0
203	0x00000000	0.0
204	0x00000000	0.0
205	0x00000000	0.0
206	0x00000000	0.0
207	0x00000000	0.0
208	0x00000000	0.0
209	0x00000000	0.0
210	0x00000000	0.0
211	0x00000000	0.0
212	0x00000000	0.0
213	0x00000000	0.0
214	0x00000000	0.0
215	0x00000000	0.0
216	0x00000000	0.0
217	0x00000000	0.0
218	0x00000000	0.0
219	0x00000000	0.0
220	0x00000000	0.0
221	0x00000000	0.0
222	0x00000000	0.0
223	0x00000000	0.0
224	0x00000000	0.0
225	0x00000000	0.0
226	0x00000000	0.0
227	0x00000000	0.0
228	0x00000000	0.0
229	0x00000000	0.0
230	0x00000000	0.0
231	0x00000000	0.0
232	0x00000000	0.0
233	0x00000000	0.0
234	0x00000000	0.0
235	0x00000000	0.0
236	0x00000000	0.0
237	0x00000000	0.0
238	0x00000000	0.0
239	0x00000000	0.0
240	0x00000000	0.0
241	0x00000000	0.0
242	0x00000000	0.0
243	0x00000000	0.0
244	0x00000000	0.0
245	0x00000000	0.0
246	0x00000000	0.0
247	0x00000000	0.0
248	0x00000000	0.0
249	0x00000000	0.0
250	0x00000000	0.0
251	0x00000000	0.0
252	0x00000000	0.0
253	0x00000000	0.0
254	0x00000000	0.0
255	0x00000000	0.0

feature_extractor.0.weight f4 [32, 64]
0	0xba284833	-0.000641945
1	0x3a0f3b48	0.00054638507
2	0x3a793fa8	0.0009508082
3	0x3b244690	0.0025066473
4	0xbae7d51a	-0.001768741
5	0x3ad70da3	0.0016407262
6	0x3a5de730	0.00084649306
7	0xba05fead	-0.0005111497
8	0xba05a2f0	-0.0005097827
9	0x3b22812f	0.0024796238
10	0x3af86a2b	0.0018952539
11	0x3a856e0d	0.0010179892
12	0x3b26f1b7	0.0025473663
13	0xb8745f58	-5.826293e-05
14	0xbb20534c	-0.0024463711
15	0x3add93a7	0.0016904966
16	0xba7c7ef8	-0.0009631957
17	0x3b20c24e	0.0024529877
18	0x3b0121e2	0.0019704034
19	0x39e18ae4	0.00043018826
20	0xbb269ceb	-0.002542312
21	0xba1f650e	-0.0006080427
22	0xb9ea6635	-0.00044708108
23	0xba484749	-0.0007640017
24	0x3b277e20	0.0025557354
25	0x39231091	0.00015551063
26	0x3b285c26	0.002568969
27	0x37ed0d25	2.8258723e-05
28	0xbabd4286	-0.0014439381
29	0x3b276106	0.0025540008
30	0x398d7754	0.00026982522
31	0x392f5033	0.00016719177
32	0xba0ff99c	-0.0005492212
33	0x3aec6474	0.0018035308
34	0x3abada2c	0.0014255694
35	0x3a1c576c	0.00059639546
36	0xb950da65	-0.00019917784
37	0x3b1a3f90	0.0023536421
38	0x3a44a5fc	0.000750154
39	0xba84d950	-0.0010135565
40	0x36e50080	6.82479e-06
41	0x3af50a48	0.0018695081
42	0xbb119fa1	-0.002222039
43	0x3a879948	0.0010345364
44	0x3ab42523	0.0013743978
45	0x3a26e898	0.00063670566
46	0xbb282d01	-0.002566159
47	0x3b271d2c	0.0025499566
48	0x3a5fcb72	0.00085370906
49	0x388c8552	6.700553e-05
50	0x3b0fc74e	0.0021938863
51	0xbaec5189	-0.001802967
52	0x3afb1a28	0.0019157575
53	0x38c9087d	9.586008e-05
54	0x3a8fad8c	0.0010961755
55	0x3b226822	0.0024781306
56	0x3b17f45e	0.0023186426
57	0xb91ffcc2	-0.00015257581
58	0xbab3ee83	-0.0013727698
59	0xba021bc2	-0.00049632427
60	0xb9f939ae	-0.00047535956
61	0x3b2897ae	0.0025725174
62	0xbae4cf4b	-0.0017456798
63	0x3988411f	0.0002598846
64	0x38cc2aaa	9.735425e-05
65	0x3b1c4d82	0.002384991
66	0xba8bca0d	-0.0010665074
67	0xba7c83ea	-0.0009632694
68	0xba844c17	-0.0010093477
69	0xb92b64a3	-0.00016345321
70	0x3a9b4a48	0.0011847699
71	0x3a55f8fa	0.00081624056
72	0xbb27cb55	-0.0025603373
73	0xb82875a4	-4.0163883e-05
74	0xba926f45	-0.0011172077
75	0xbb291743	-0.0025801219
76	0x3b03d8d0	0.0020118244
77	0x39ce089b	0.00039297793
78	0xbae7fa4f	-0.0017698499
79	0x3b17c734	0.0023159506
80	0xbb1555ea	-0.0022786804
81	0x39f6c524	0.00047067658
82	0x3a6694b3	0.00087959616
83	0xba862856	-0.001023541
84	0x3b294300	0.0025827289
85	0x3aa3d428	0.001249914
86	0xb8951514	-7.1088e-05
87	0xbb09b7fe	-0.002101421
88	0x3b291998	0.0025802609
89	0xba616fe3	-0.0008599741
90	0xbb188a35	-0.0023275737
91	0x3a01dafb	0.000495359
92	0xbb292bcf	-0.0025813465
93	0xbb25187a	-0.002519159
94	0x3b06314c	0.002047616
95	0xbad4db82	-0.0016239735
96	0xb9fb80c8	-0.000479704
97	0xbab01774	-0.0013434724
98	0x3975b78b	0.00023433396
99	0x3b293c6f	0.0025823375
100	0x3b259332	0.0025264737
101	0xb93fdf53	-0.00018298374
102	0xbb290664	-0.0025791163
103	0xbaf275b2	-0.0018498211
104	0x3ad99c0b	0.001660229
105	0xbb0c12a4	-0.0021373415
106	0xbabffae7	-0.0014646918
107	0x3a685b11	0.00088636676
108	0xba691588	-0.0008891453
109	0xba2fb818	-0.00067031523
110	0x3b0d226f	0.0021535417
111	0xba8491e4	-0.001011428
112	0x3b28efc3	0.0025777675
113	0xbb07bbea	-0.002071137
114	0xbb293033	-0.0025816082
115	0xbb20ac0d	-0.0024516613
116	0x394a7984	0.0001930949
117	0x3af3577f	0.0018565505
118	0x3902ae3d	0.00012462675
119	0x3b26563f	0.0025380997
120	0xbae1ed9b	-0.001723695
121	0xba5d512a	-0.00084425753
122	0x3af23c01	0.0018481017
123	0x3b284919	0.0025678335
124	0xbb18612b	-0.0023251276
125	0xb8eb8b25	-0.00011231591
126	0xba3d7a70	-0.00072280224
127	0xba3912f4	-0.0007060014
128	0x3b119d62	0.0022219052
129	0x3b13f663	0.0022577278
130	0xb9073ec3	-0.00012897984
131	0xb934e30b	-0.00017250718
132	0xbb18466a	-0.002323533
133	0xbaed0edd	-0.0018086095
134	0x3921d1b8	0.00015432283
135	0x38163f6c	3.5821853e-05
136	0xbab21158	-0.0013585491
137	0xbb2624e9	-0.002535159
138	0x3b216459	0.0024626462
139	0xba1d8266	-0.00060085056
140	0x38150754	3.5531193e-05
141	0x3b24016e	0.0025025266
142	0xba863542	-0.0010239261
143	0xba82ea97	-0.0009988126
144	0xbac5ab62	-0.0015080983
145	0x3b2942f8	0.002582727
146	0x3a85fb4e	0.0010221989
147	0x394c31ed	0.00019473555
148	0xbb26415d	-0.002536855
149	0xbb24a7dd	-0.0025124468
150	0xbb1bd257	-0.0023776495
151	0xbb1d1b3a	-0.0023972527
152	0xb8db5b6e	-0.00010459764
153	0x39a36fbf	0.0003117304
154	0x3a7ca4e4	0.0009637608
155	0xbb0fb3c9	-0.0021927229
156	0x3a0977d7	0.0005243993
157	0x3b21e82e	0.002470504
158	0x3b29424e	0.0025826874
159	0x3a861b9e	0.0010231619
160	0x3a842ebd	0.001008473
161	0x37bd60de	2.2575663e-05
162	0x3b255aea	0.002523119
163	0x39472b60	0.00018994277
164	0x3892a40a	6.992377e-05
165	0x37be1936	2.2661505e-05
166	0xb973c1e4	-0.00023246516
167	0xb837055c	-4.363559e-05
168	0xbb0a2908	-0.0021081585
169	0x3a65cc1e	0.00087660726
170	0x3b291c38	0.0025804173
171	0x3b009831	0.0019621963
172	0x3b20d5f2	0.0024541584
173	0x396c0c8a	0.00022511385
174	0x39a0aa66	0.00030644535
175	0x3a04ef22	0.0005071034
176	0x3a8566d3	0.0010177739
177	0x3971ad5a	0.0002304813
178	0xb95a6f99	-0.00020831673
179	0x3a07b7ed	0.00051772484
180	0xbb12ef2b	-0.0022420387
181	0x39cf81d8	0.00039578858
182	0x3a66c2f5	0.00088028546
183	0xbb19442d	-0.0023386583
184	0x3a864b84	0.0010245894
185	0x3a85e224	0.001021449
186	0xbaf45cbe	-0.0018643362
187	0xb9dc4f19	-0.00042020602
188	0x3a97a8ca	0.0011570689
189	0x3a7e774b	0.0009707107
190	0xbaf88f31	-0.0018963573
191	0x39f9fb44	0.00047680188
192	0xba6ef5ce	-0.0009115607
193	0x3ae7258b	0.001763509
194	0x3a33cbd0	0.00068586785
195	0x3ababa19	0.0014246135
196	0xbac92b43	-0.0015347976
197	0xb8eefbe4	-0.00011395643
198	0x3a1bf740	0.0005949624
199	0x3b0f40b2	0.002185863
200	0x3ae914fd	0.0017782744
201	0xb9dfe896	-0.00042707165
202	0xb90106c8	-0.00012304925
203	0xb9c40b06	-0.00037392246
204	0x399ee049	0.00030303214
205	0x3ae125be	0.0017177386
206	0xba8481b9	-0.0010109461
207	0x3ac346d6	0.001489843
208	0xbab84d4c	-0.0014061122
209	0xbb18245f	-0.0023215038
210	0x39a0d013	0.00030672605
211	0xba5d114c	-0.00084330584
212	0xb9dab742	-0.00041716738
213	0xbb0e4401	-0.0021708014
214	0x39db671a	0.00041847752
215	0xba85dfaf	-0.0010213758
216	0x3b066b27	0.0020510645
217	0x382413ac	3.9118968e-05
218	0xb8d482e8	-0.00010133331
219	0xb9d637fa	-0.00040858967
220	0xbb1757fa	-0.002309321
221	0xb7a0ad80	-1.9154279e-05
222	0xbb19de1b	-0.0023478332
223	0xbae6e08a	-0.0017614525
224	0xb949c6c7	-0.00019242904
225	0x398b22c5	0.0002653805
226	0xb992ae4c	-0.0002797715
227	0xbb0a9a76	-0.0021149195
228	0x399ef412	0.00030317955
229	0x3ab9ca0b	0.0014174593
230	0xb94dcc27	-0.00019626376
231	0x3887c469	6.473886e-05
232	0xb822a44a	-3.8776816e-05
233	0x38f88eaa	0.00011852135
234	0x3b21a338	0.0024663936
235	0x3ab3f5aa	0.001372983
236	0x39e87317	0.00044336237
237	0xba013c70	-0.00049299654
238	0x3b26423d	0.002536907
239	0x3b1125d2	0.0022147787
240	0xb8bb312c	-8.926014e-05
241	0x3b1b4634	0.0023692967
242	0x3a411288	0.0007365127
243	0x3b25eb8a	0.0025317394
244	0x38960f14	7.155366e-05
245	0x3952ec25	0.00020115131
246	0x3b2813e7	0.0025646628
247	0xbb024f27	-0.0019883604
248	0x3a700443	0.00091559085
249	0x3b0fe177	0.0021954456
250	0xb985f3ef	-0.00025549482
251	0xbb1cd55d	-0.0023930885
252	0x3a8759df	0.0010326466
253	0x399fc87a	0.0003047621
254	0x3b1eb3ad	0.0024215982
255	0x3a2bcf06	0.0006553981

feature_extractor.0.bias f4 [32]
0	0x00000000	0.0
1	0x00000000	0.0
2	0x00000000	0.0
3	0x00000000	0.0
4	0x00000000	0.0
5	0x00000000	0.0
6	0x00000000	0.0
7	0x00000000	0.0
8	0x00000000	0.0
9	0x00000000	0.0
10	0x00000000	0.0
11	0x00000000	0.0
12	0x00000000	0.0
13	0x00000000	0.0
14	0x00000000	0.0
15	0x00000000	0.0
16	0x00000000	0.0
17	0x00000000	0.0
18	0x00000000	0.0
19	0x00000000	0.0
20	0x00000000	0.0
21	0x00000000	0.0
22	0x00000000	0.0
23	0x00000000	0.0
24	0x00000000	0.0
25	0x00000000	0.0
26	0x00000000	0.0
27	0x00000000	0.0
28	0x00000000	0.0
29	0x00000000	0.0
30	0x00000000	0.0
31	0x00000000	0.0

feature_extractor.3.weight f4 [16, 32]
0	0x3a7ff358	0.0009763739
1	0x39fe96af	0.00048558923
2	0xbab10f27	-0.0013508544
3	0xb83f15ec	-4.5558365e-05
4	0x3a60630d	0.00085596816
5	0xb823f450	-3.9089762e-05
6	0xb9bff675	-0.00036613984
7	0x3ae671e0	0.0017581545
8	0x39b28f96	0.00034057786
9	0x3a9b6e08	0.0011858353
10	0xb8b6b096	-8.711328e-05
11	0xba7aadfd	-0.00095626694
12	0xb99c9552	-0.0002986589
13	0x3aa2ba87	0.0012415209
14	0xbb3de721	-0.0028976875
15	0x3b9a1f27	0.0047034207
16	0xbaf7ddbd	-0.0018910688
17	0x395a8708	0.00020840403
18	0x3a77f72e	0.0009459135
19	0xbb1e49d9	-0.0024152903
20	0xba95d3f2	-0.0011430962
21	0x3987d8b5	0.00025910666
22	0xbb21bbc6	-0.0024678572
23	0xba70dcb4	-0.0009188161
24	0x3ace23b5	0.0015727194
25	0x3a24597a	0.00062694366
26	0x3af78e8f	0.001888709
27	0x3a23da10	0.00062504504
28	0xb9d9dc3e	-0.0004155356
29	0x3a807cdc	0.0009802836
30	0x3b2709be	0.0025487985
31	0x39ea5939	0.00044698434
32	0x3b0ad456	0.002118369
33	0xbb05cf64	-0.0020417804
34	0xba31adee	-0.00067779317
35	0x3a2618c0	0.00063360855
36	0x3b160b54	0.0022894936
37	0xb7084500	-8.122297e-06
38	0x3a4dada0	0.00078460015
39	0x3ae31408	0.0017324695
40	0xb99bc596	-0.00029711117
41	0x39036d92	0.00012533952
42	0x3a9d4a88	0.0012000361
43	0xb983feac	-0.00025176012
44	0xba6b4a58	-0.00089756167
45	0xbb8d287c	-0.0043078046
46	0x3b19bfcf	0.0023460274
47	0xb9a4263a	-0.00031309
48	0x3951a901	0.00019994752
49	0xbb9d77fe	-0.004805564
50	0xb8a2b33d	-7.758148e-05
51	0x3b28a163	0.002573096
52	0x3a416fb9	0.00073790137
53	0x3a7b390c	0.0009583391
54	0xbb4764a8	-0.0030424986
55	0xb9896f7e	-0.00026213744
56	0x3a8503ba	0.0010148205
57	0xba7eece7	-0.0009724632
58	0x3b31bb44	0.0027119676
59	0xb8587d97	-5.1615378e-05
60	0x3a6d096f	0.0009042238
61	0xba9db3f7	-0.0012031783
62	0x3b2940d2	0.002582599
63	0x39ba8e6b	0.00035582794
64	0x3b5ca0b0	0.0033665113
65	0xb8acf4ae	-8.247174e-05
66	0x3a1adf95	0.000590795
67	0xbb279c9e	-0.002557553
68	0xba9b530c	-0.0011850311
69	0xba553815	-0.0008133662
70	0x3b129703	0.0022367842
71	0x3b9da31a	0.004810703
72	0xba9ce21a	-0.0011969239
73	0x397f2db9	0.00024335728
74	0x3a82f2ef	0.0009990613
75	0x395a3138	0.00020808436
76	0x3ab5c40f	0.0013867634
77	0xbadec36a	-0.0016995494
78	0xba60a4a9	-0.0008569458
79	0xb9fbf6e2	-0.00048058393
80	0x3b1fdb6c	0.002439226
81	0x3a85cfeb	0.0010209059
82	0xbb80dadf	-0.0039323415
83	0x3aa82e2e	0.0012831145
84	0xbb7c0028	-0.0038452242
85	0xbb11c664	-0.0022243494
86	0xb8fdd14e	-0.00012102966
87	0xba79052f	-0.00094993686
88	0xbb9eebe7	-0.004849899
89	0xbb9002b3	-0.004394853
90	0xbab04ec1	-0.0013451205
91	0x3b181c89	0.0023210368
92	0x397af932	0.0002393469
93	0xba73ef98	-0.00093054166
94	0x39fcebf5	0.00048240987
95	0x3a6117d4	0.00085866195
96	0xbb092a31	-0.002092969
97	0x3a18f9de	0.0005835573
98	0xbb1d85dd	-0.0024036088
99	0x39d9c2d0	0.00041534612
100	0x3a3cb539	0.0007198635
101	0x3b155d09	0.002279105
102	0xbafd1d67	-0.0019311131
103	0x3b0ddef0	0.0021647774
104	0xbb23b3db	-0.0024979028
105	0x390c7c1a	0.00013397672
106	0x39df363e	0.00042574288
107	0xbaeb121c	-0.0017934474
108	0x39acdbed	0.00032970254
109	0x394ba458	0.00019420811
110	0x36e2260c	6.739754e-06
111	0x39fdbc52	0.0004839623
112	0xb990bccf	-0.00027606494
113	0xbb286247	-0.0025693343
114	0x3af71dea	0.001885352
115	0xbb0e170f	-0.0021681224
116	0xba6600aa	-0.00087739027
117	0xbb291b47	-0.0025803612
118	0xb7b5a310	-2.1652813e-05
119	0xba856c9b	-0.0010179462
120	0xbb2882b1	-0.0025712664
121	0x3a7fd4ba	0.0009759177
122	0x3ae8e5f1	0.0017768723
123	0xbb414cf5	-0.0029495333
124	0xba11e281	-0.0005565063
125	0x3a67b3e7	0.0008838758
126	0x3a1af481	0.0005911068
127	0xbb281340	-0.002564624
128	0x363e3380	2.8342183e-06
129	0x39240458	0.00015641877
130	0xba1719e8	-0.0005764053
131	0xbb743ceb	-0.0037267755
132	0x3b0abed9	0.0021170883
133	0xbb15e309	-0.002287092
134	0x39a18cff	0.00030813363
135	0x3a294bdd	0.0006458143
136	0xbb6147d1	-0.0034375081
137	0xbb371a55	-0.002793928
138	0x3b99e3fd	0.004696368
139	0x3995a19a	0.00028539897
140	0x3b09436e	0.0020944732
141	0x3adb9702	0.0016753378
142	0xb9259887	-0.00015792447
143	0x3b06e507	0.0020583288
144	0x3b8a7fc9	0.004226659
145	0x3ac7bdd2	0.0015239066
146	0x38e114b3	0.000107326916
147	0x3b87fcb0	0.0041499957
148	0xbb04196d	-0.0020156757
149	0x3a353faa	0.0006914089
150	0x3b1f66b8	0.00243227
151	0xbaeaccf8	-0.0017913869
152	0xb87c2bd1	-6.012229e-05
153	0x3b9a7877	0.0047140676
154	0xbb0ba4c1	-0.0021307918
155	0xba40c30c	-0.0007353283
156	0x3b1e4ab2	0.0024153409
157	0x3aa9f1c4	0.0012965729
158	0xba276d72	-0.0006386853
159	0xba59509b	-0.0008289904
160	0x3a67d7ea	0.00088441244
161	0x3b0ff6ea	0.002196724
162	0xbb4ce44d	-0.0031264008
163	0x3a82d9f2	0.0009983166
164	0xbb205844	-0.0024466673
165	0xb98a5ec3	-0.00026392014
166	0xb9ff3372	-0.0004867572
167	0xba52a5d4	-0.00080355746
168	0x3aec08d1	0.0018007999
169	0xbb2cd40b	-0.0026371505
170	0x3acc1190	0.0015569199
171	0xba2e374d	-0.00066458137
172	0xb8772708	-5.892574e-05
173	0xbade9b40	-0.0016983524
174	0x39d4b792	0.00040572562
175	0xba7fbc6c	-0.0009755555
176	0xb9ea2ff6	-0.00044667692
177	0x3a70c65f	0.0009184833
178	0x3b1001c2	0.0021973704
179	0xbb28fcc3	-0.0025785423
180	0x3a639d95	0.00086828443
181	0x3b275d53	0.0025537803
182	0x3b12b9e1	0.0022388624
183	0xbb245540	-0.0025075227
184	0x398336ac	0.00025027
185	0x3b06632b	0.0020505886
186	0xba46aacd	-0.0007578552
187	0xbad316b8	-0.0016104793
188	0xbab4cc9f	-0.0013793892
189	0x3a090c8a	0.0005228004
190	0xba1f416b	-0.00060751167
191	0xbb11ac08	-0.0022227783
192	0x39ebe125	0.0004499044
193	0x3b1fae0b	0.0024365212
194	0x3b84283b	0.004033116
195	0xba43339e	-0.0007446351
196	0x3a234603	0.0006228389
197	0xbab51f01	-0.0013818444
198	0xbb2196c5	-0.0024656516
199	0x3b271962	0.0025497307
200	0xba6def7c	-0.00090765185
201	0xba84fa9e	-0.001014549
202	0x3a7e0fcd	0.00096916856
203	0xbb1457be	-0.0022635306
204	0x3b28d8bc	0.002576395
205	0x39d67f1d	0.00040911968
206	0x3ad87f56	0.0016517441
207	0xbad264a1	-0.0016051718
208	0xbb21d0b5	-0.002469105
209	0xba816c51	-0.00098742
210	0xbac8d8cf	-0.0015323403
211	0xbb0d7094	-0.0021581994
212	0x3aace405	0.0013190514
213	0xbb1a03a5	-0.0023500707
214	0x3ab0f378	0.0013500294
215	0x3a74b345	0.00093345746
216	0xbb630b1e	-0.0034644078
217	0xbba181cd	-0.0049288035
218	0xbadabca9	-0.0016688305
219	0xba6873ce	-0.0008867354
220	0xb9f03baf	-0.00045820835
221	0xbb1f0e11	-0.002426986
222	0xba08488d	-0.0005198799
223	0xb6b5bba0	-5.416063e-06
224	0x3a251c0c	0.000629843
225	0x38f3e6a0	0.000116301
226	0xbb018543	-0.0019763268
227	0xb8c8b1d0	-9.569863e-05
228	0x381437b4	3.5337827e-05
229	0xbb1e01eb	-0.002411003
230	0xb8b7dec2	-8.767612e-05
231	0xba747e3e	-0.0009326673
232	0xbadf1138	-0.0017018681
233	0xbb05b30a	-0.0020400905
234	0x3b237168	0.0024939422
235	0x3a7e91b8	0.0009711045
236	0xb9ea5b29	-0.00044699878
237	0x39511720	0.00019940408
238	0x3b22b729	0.002482841
239	0x3908c402	0.0001304299
240	0x3ae1fa82	0.0017240795
241	0xbaa0c28b	-0.001226501
242	0xbb18e369	-0.0023328906
243	0x3a094ff9	0.0005238052
244	0x390461d2	0.00012624942
245	0x3ab3feca	0.0013732549
246	0x3b126ac9	0.002234148
247	0x398d75b3	0.00026981308
248	0x38f8a474	0.00011856193
249	0x3b21038d	0.0024568767
250	0x390abc06	0.0001323075
251	0xba8ca4a4	-0.0010730219
252	0x3b280702	0.0025638943
253	0xb728f190	-1.00698235e-05
254	0x3b0f3198	0.0021849629
255	0xb9a0d189	-0.00030673694

feature_extractor.3.bias f4 [16]
0	0x00000000	0.0
1	0x00000000	0.0
2	0x00000000	0.0
3	0x00000000	0.0
4	0x00000000	0.0
5	0x00000000	0.0
6	0x00000000	0.0
7	0x00000000	0.0
8	0x00000000	0.0
9	0x00000000	0.0
10	0x00000000	0.0
11	0x00000000	0.0
12	0x00000000	0.0
13	0x00000000	0.0
14	0x00000000	0.0
15	0x00000000	0.0

output_layer.weight f4 [8, 16]
0	0xb8c4a59e	-9.376857e-05
1	0x380bf631	3.3369466e-05
2	0xb740684c	-1.1468375e-05
3	0x39395914	0.00017676159
4	0xb8ba6b18	-8.889119e-05
5	0xb8811160	-6.154436e-05
6	0xb8130ca6	-3.505931e-05
7	0x38756d18	5.8514153e-05
8	0x39396e93	0.00017684167
9	0x3852009a	5.0068462e-05
10	0xb7afc4af	-2.0953214e-05
11	0xb8351cb6	-4.3180502e-05
12	0xb84bfe41	-4.8635764e-05
13	0xb8868627	-6.414606e-05
14	0x3846d096	4.740114e-05
15	0xb85166b5	-4.9925136e-05
16	0xb9096705	-0.00013103716
17	0x387a7d40	5.9721293e-05
18	0xb7c02cc0	-2.2909022e-05
19	0xb7f578c4	-2.9262512e-05
20	0xb8807295	-6.124858e-05
21	0xb90309b0	-0.00012496742
22	0xb85ccb2e	-5.2641313e-05
23	0x383ca276	4.4973996e-05
24	0x3603ac60	1.9620857e-06
25	0x3696c9d8	4.493846e-06
26	0x3816c8e8	3.5949895e-05
27	0x36b31a70	5.3376934e-06
28	0x381e424c	3.773188e-05
29	0x38947d2e	7.0805065e-05
30	0x38b0e9b0	8.435862e-05
31	0xb7ea718a	-2.7947845e-05
32	0xb8afdd09	-8.385821e-05
33	0x38abad2b	8.1861705e-05
34	0x391acabb	0.00014762107
35	0x37fe62f4	3.0325238e-05
36	0x37e7000c	2.7537368e-05
37	0xb8bf5723	-9.12382e-05
38	0xb724806c	-9.805062e-06
39	0x3871a93a	5.7616482e-05
40	0x38e8180e	0.000110671026
41	0x382d7f35	4.1364885e-05
42	0xb7653b67	-1.3663294e-05
43	0xb806d8c0	-3.2149954e-05
44	0xb7a3ca46	-1.9525305e-05
45	0xb74cc9e2	-1.2206352e-05
46	0x38bbc223	8.953016e-05
47	0x3981c25b	0.00024749603
48	0x386045ec	5.347088e-05
49	0xb90199fd	-0.00012359764
50	0x38d432c4	0.000101184036
51	0xb6a63e80	-4.9544615e-06
52	0xb842ba30	-4.6426605e-05
53	0x3902d1f2	0.00012475977
54	0xb9095c73	-0.00013099778
55	0xb91168ec	-0.00013867364
56	0x37eb1ef1	2.8028591e-05
57	0xb8f5d597	-0.000117222946
58	0xb94b9e67	-0.00019418598
59	0xb90a516b	-0.00013191036
60	0x388b1140	6.6312496e-05
61	0xb908f8fd	-0.00013062726
62	0x37f954f6	2.9722676e-05
63	0x382b7469	4.0877992e-05
64	0xb8cb2215	-9.6861426e-05
65	0xb6a432f0	-4.893511e-06
66	0x3822a964	3.8781567e-05
67	0x38324348	4.2501168e-05
68	0x379d6938	1.8764855e-05
69	0xb82d92f4	-4.1383275e-05
70	0xb7af03d4	-2.0863408e-05
71	0xb8131db0	-3.507518e-05
72	0xb7d779a0	-2.5686633e-05
73	0xb8a3f98d	-7.818928e-05
74	0xb793d64e	-1.7623559e-05
75	0xb9030fef	-0.00012499069
76	0xb8ac36d4	-8.211812e-05
77	0xb87d07bc	-6.0327104e-05
78	0xb93edde0	-0.00018202467
79	0xb88106d7	-6.152473e-05
80	0x38c77a18	9.511801e-05
81	0xb7a0feec	-1.9192194e-05
82	0xb7c920fe	-2.397643e-05
83	0x387662e2	5.8743062e-05
84	0xb855280e	-5.082046e-05
85	0xb7dc7a08	-2.6282869e-05
86	0xb801444c	-3.0819603e-05
87	0xb79530b8	-1.778487e-05
88	0x38c8c9eb	9.574353e-05
89	0x385a8c9c	5.2106203e-05
90	0xb7705110	-1.4323989e-05
91	0xb79dba66	-1.8802657e-05
92	0x385d0f6a	5.270486e-05
93	0xb8119090	-3.470533e-05
94	0x37d05762	2.4836223e-05
95	0xb86bac95	-5.6189096e-05
96	0x3908bec0	0.0001304103
97	0xb8bb222b	-8.923219e-05
98	0xb81f0da0	-3.7921243e-05
99	0x3732f9a0	1.0667747e-05
100	0xb82e5fd6	-4.1574087e-05
101	0xb8903fae	-6.878316e-05
102	0xb84f1af6	-4.9377755e-05
103	0xb8865c04	-6.406757e-05
104	0xb937a14a	-0.00017512325
105	0xb85b0cae	-5.2225478e-05
106	0xb7a79a74	-1.9979874e-05
107	0xb9067f5e	-0.00012826684
108	0xb9049639	-0.00012644463
109	0xb79225d8	-1.7422179e-05
110	0xb8801b4f	-6.108602e-05
111	0x38614b6e	5.371443e-05
112	0xb9072e3a	-0.00012891824
113	0x36122ac0	2.178058e-06
114	0x384d67b7	4.89724e-05
115	0xb8ba3037	-8.878152e-05
116	0xb8ea24eb	-0.00011164866
117	0x37ccd46a	2.4417608e-05
118	0xb70bee04	-8.340463e-06
119	0x37cda7ec	2.4516099e-05
120	0xb8b50f8e	-8.63365e-05
121	0xb79bb44e	-1.85614e-05
122	0x37c68680	2.366607e-05
123	0xb8964de8	-7.1670685e-05
124	0xb7ac8db6	-2.0569987e-05
125	0xb6faa240	-7.469469e-06
126	0x38ecb1b4	0.00011286457
127	0x37f54b63	2.924138e-05

output_layer.bias f4 [8]
0	0xbb289fa4	-0.002572992
1	0x37b6bce4	2.178405e-05
2	0x409ed94c	4.9640255
3	0x3d862185	0.06549362
4	0xbb289fa4	-0.002572992
5	0x37b6bce4	2.178405e-05
6	0x409ed94c	4.9640255
7	0x3d862185	0.06549362
